Drift_detection/lstm_model.pth (torch, 51494 bytes, 5 tensors)

lstm.weight_ih_l0 f4 [200, 9]
0	0x3e5354f6	0.20637879
1	0x3bcbfc1a	0.006225121
2	0x3d950896	0.07277028
3	0xbd0fb85d	-0.035087932
4	0x3e4cca72	0.19999102
5	0x3df4834f	0.119391076
6	0x3e0560fb	0.13025276
7	0x3cabb980	0.020962477
8	0x3df15ad1	0.117849
9	0x3dc10533	0.0942482
10	0x3d9aae52	0.0755278
11	0x3e2751b5	0.16339763
12	0xbd6f63dc	-0.058444843
13	0xbe69e119	-0.22839774
14	0x3c39da05	0.011343484
15	0xbe0ca5be	-0.137351
16	0xbe3b43c3	-0.18287568
17	0xbd8dd846	-0.069260165
18	0xbe0bb06e	-0.13641521
19	0x3cd4c4e0	0.025972784
20	0x3d1449e2	0.036203273
21	0xbdd69b41	-0.10478831
22	0x3d95a07b	0.07306
23	0x3dc30fa1	0.09524465
24	0x3d5b1a22	0.05349172
25	0xbd1f23ed	-0.03885262
26	0xbd1d6b3a	-0.038432337
27	0x3dd45be0	0.10369086
28	0x3e012480	0.1261158
29	0x3dcee956	0.10103099
30	0x3d8d0165	0.068850316
31	0xbdbe2b59	-0.09285612
32	0x3bf776fb	0.0075520254
33	0xbdd1baaa	-0.102406815
34	0x3d9e3096	0.07724111
35	0xbde34865	-0.110977925
36	0x3d4df729	0.05028454
37	0xbd087e38	-0.033323497
38	0x3d8e33a0	0.069434404
39	0x3b5b020d	0.003341797
40	0x3de69082	0.112580314
41	0xbd8a7724	-0.067610055
42	0xbd7a7257	-0.0611442
43	0xbd5b5e27	-0.053556588
44	0x3cf8dca0	0.03037864
45	0x3d892c06	0.0669785
46	0xbe0e62ac	-0.13904828
47	0x3d075021	0.0330354
48	0xbc852f88	-0.016258016
49	0x3cdd6b43	0.027028685
50	0xbc6cafb0	-0.014446184
51	0xbc22a71a	-0.009927535
52	0xbe2660ae	-0.16247818
53	0xbda1859a	-0.078868106
54	0xbe1cc2fd	-0.15308757
55	0x3cb97dc6	0.022642981
56	0xbb21ed49	-0.0024708083
57	0x3db34da5	0.08755044
58	0x3b1ddb26	0.0024086921
59	0xbd170435	-0.036869247
60	0xbaaf16e9	-0.0013358268
61	0xbdc1f251	-0.09470046
62	0x3dcf328c	0.10117063
63	0x3c6c923d	0.014439163
64	0xbe1e4d03	-0.15459065
65	0x3dd40b4a	0.10353716
66	0xbde820c6	-0.11334376
67	0x3d9b4385	0.07581238
68	0xbdfe5a21	-0.124195345
69	0x3d55f50d	0.05223565
70	0xbdcbc873	-0.09950342
71	0xbc824d41	-0.015905978
72	0x3c55e555	0.013055165
73	0x3e0402c1	0.12891676
74	0x3dab1350	0.08353293
75	0x3dc9d093	0.098542355
76	0x3e0cab85	0.13737305
77	0x3e0d58ee	0.13803455
78	0x3df9b31b	0.12192365
79	0xbbc011ed	-0.005861512
80	0xbd42c0cd	-0.04754715
81	0xbd590320	-0.052981496
82	0xbd86722a	-0.06564744
83	0xbd87b32b	-0.066259705
84	0x3dc1bf59	0.09460325
85	0xbdec15a9	-0.11527569
86	0x3e1538fc	0.14572519
87	0xbd47daa5	-0.0487925
88	0xbe2091b5	-0.15680583
89	0x3dde977f	0.10868739
90	0xbd573c34	-0.05254765
91	0x3ddce1e5	0.107852735
92	0xbd98a1c5	-0.0745273
93	0x3d85603d	0.065124966
94	0x3b53abde	0.0032298486
95	0x3dded235	0.108799376
96	0xbca6830a	-0.020326156
97	0xbcb8e714	-0.022571124
98	0xbb4f5c40	-0.0031640679
99	0x3d156bb4	0.036479667
100	0x3cff04be	0.031130191
101	0x3d88c4e3	0.06678178
102	0xbcacce17	-0.021094365
103	0x3e368859	0.1782545
104	0xbd99ce8c	-0.07510099
105	0xbdae6c2f	-0.08516728
106	0x3e12f10f	0.14349769
107	0xbc613e94	-0.01374783
108	0xbb46e120	-0.0030346587
109	0xbb9ff54c	-0.0048815366
110	0x3df183d1	0.1179272
111	0x3c76bce2	0.015059682
112	0xbd9f06c3	-0.077649616
113	0x3dd5641b	0.10419484
114	0x3d56cc45	0.0524409
115	0xbe147e3e	-0.14501283
116	0xbe12afd9	-0.14324893
117	0x3d246da3	0.04014362
118	0x3de101c6	0.109866664
119	0xbde8c2b8	-0.11365265
120	0xbd02b524	-0.03191103
121	0x3c8d25e4	0.017229982
122	0x3ccd6ab3	0.025075292
123	0xbda862ec	-0.08221993
124	0xbd84f94c	-0.06492862
125	0xbcddcb15	-0.027074376
126	0x3d4b3174	0.04960771
127	0x3d0868ad	0.03330295
128	0x3d9725f8	0.07380289
129	0xbdd30466	-0.10303573
130	0xbe5a3c50	-0.2131207
131	0x3deb78de	0.11497663
132	0xbc0b6a2f	-0.008509203
133	0xbd7b7d2d	-0.061398674
134	0x3dae18c0	0.085008144
135	0xbd9e89bd	-0.07741115
136	0x3d783247	0.060594823
137	0x3dc79539	0.09745259
138	0xbdffd314	-0.12491432
139	0xbde4ce5d	-0.11172173
140	0xbda1c4bd	-0.07898853
141	0x3d6e860a	0.0582333
142	0x3d83ae1c	0.06429693
143	0x3c70d3e3	0.014698955
144	0xbd5e0bae	-0.054210357
145	0x3c4ca06e	0.012489421
146	0xbc5002ed	-0.01269601
147	0xbe1228fd	-0.14273448
148	0x3ddb2a7f	0.10701465
149	0xbd701f64	-0.058623686
150	0xbcd87dc8	-0.026427165
151	0xbd1ae633	-0.03781719
152	0x3dac2446	0.08405356
153	0x3e0d3187	0.13788424
154	0x3c02fa64	0.007994268
155	0x3e0dc6c7	0.13845359
156	0x3e4e15a4	0.20125443
157	0x3e6a7d31	0.22899319
158	0x3d04d93a	0.032433726
159	0x3dd9594e	0.10612737
160	0x3c227508	0.009915598
161	0x3d1baac3	0.038004648
162	0xbd8646be	-0.06556462
163	0x3cac7921	0.021053853
164	0x3da242d0	0.079229
165	0x3de860e8	0.113466084
166	0xbbf7ddaa	-0.007564266
167	0xbd3281f7	-0.043580975
168	0xbd73d1d3	-0.059526276
169	0x39fe9a34	0.00048561546
170	0x3dda0b44	0.1064668
171	0xbdecaae2	-0.11556031
172	0x3d124976	0.03571459
173	0xbb652a1a	-0.0034967721
174	0x3cdff739	0.027339565
175	0xbdd79457	-0.105263405
176	0xbd93b54d	-0.07212315
177	0xbe7d75be	-0.24751946
178	0xbe45639e	-0.19276282
179	0xbce549bd	-0.027989263
180	0x3cd6b5fa	0.02620982
181	0x3d97d1fa	0.07413097
182	0xbe06f712	-0.13180187
183	0x3a9a983e	0.0011794639
184	0xbd331ec3	-0.04373051
185	0xbd0261af	-0.03183144
186	0xbcff63e4	-0.031175561
187	0xbde2ec71	-0.11080254
188	0xbdc5372d	-0.096296646
189	0x3c78c527	0.0151837235
190	0x3e368382	0.17823604
191	0x3e211eaf	0.15734361
192	0x3e47884f	0.19485591
193	0x3e8bb449	0.27285984
194	0x3d29afcc	0.04142742
195	0x3de033fe	0.10947417
196	0xbc2b2d95	-0.010447879
197	0x3dfb32e6	0.122655675
198	0xbdb876a3	-0.09007003
199	0x3db442aa	0.08801778
200	0xbce842bd	-0.028352136
201	0x3dcb563c	0.09928557
202	0x3bba52e3	0.0056861504
203	0x3dc21170	0.09475982
204	0xbd9e31ea	-0.07724364
205	0xbd66dc4a	-0.056362428
206	0x3c24c8f5	0.0100576775
207	0xbd9cb774	-0.076521784
208	0x3e0b28ae	0.13589737
209	0x3dbf00d0	0.09326327
210	0x3d433671	0.04765934
211	0x3d836be1	0.06417061
212	0xbcea96b2	-0.02863631
213	0x3d8b71e3	0.068088315
214	0xbde22b9e	-0.110434756
215	0xb9fdb732	-0.00048392412
216	0xbce4002b	-0.027832111
217	0x3e4ce530	0.20009303
218	0x3e21e350	0.15809369
219	0x3d9c8b48	0.07643753
220	0x3e424ba0	0.18974161
221	0x3e295202	0.1653519
222	0xbd078e7c	-0.033094868
223	0x3e34b568	0.17647326
224	0xb8c52fb6	-9.402579e-05
225	0x3cfd62a5	0.030930826
226	0xbe02a64f	-0.12758754
227	0xbe0769e1	-0.13223983
228	0xbdd8304d	-0.10556088
229	0x3d9d3bb8	0.07677406
230	0xbdfdc7d7	-0.12391632
231	0xbd9ac8f5	-0.07557861
232	0x3dfc7de3	0.123286985
233	0x3db0bc28	0.08629638
234	0xbe0b3f2d	-0.13598318
235	0x3db50ed6	0.0884072
236	0xbd8220e9	-0.06353933
237	0x3dbe6332	0.09296264
238	0x3c95ab92	0.018270288
239	0x3c8da1c5	0.017289052
240	0xbd9d19a9	-0.0767091
241	0x3cbfb3f2	0.023401234
242	0xbe19d272	-0.15021685
243	0xbd91e02c	-0.071228355
244	0x3ca06441	0.019579055
245	0x3e2619da	0.16220799
246	0x3d661bd7	0.056178894
247	0xbd836e01	-0.06417466
248	0xbc85bfdd	-0.01632684
249	0x3db679b7	0.08909934
250	0x3d34700c	0.04405217
251	0xbd1a16ae	-0.037619285
252	0xbdaa5b81	-0.08318234
253	0xbc04d533	-0.008107471
254	0x3d73bd99	0.059506986
255	0xbb906164	-0.004406141

lstm.weight_hh_l0 f4 [200, 50]
0	0x3d0cdbe8	0.034389406
1	0x3e180aad	0.14847822
2	0xbd0a32aa	-0.033739723
3	0x3d869ff8	0.0657348
4	0xbc499a2f	-0.012304827
5	0xbd844f4d	-0.06460438
6	0xbdebea74	-0.11519328
7	0xbd536400	-0.05160904
8	0xbd11b78b	-0.03557543
9	0x3d619344	0.055072084
10	0xbe0543f2	-0.130142
11	0x3d5288fb	0.051400166
12	0x3dd4cfb8	0.10391182
13	0xbdc797d7	-0.09745758
14	0xbdcd8d94	-0.100367695
15	0xbdc702e3	-0.097173475
16	0xbe2b0d5d	-0.16704316
17	0xbd56b9d8	-0.05242333
18	0x3e0b0722	0.1357694
19	0xbdbcff20	-0.09228349
20	0xbc87a0ef	-0.016556231
21	0x3bd907ab	0.0066232285
22	0xbc97b3af	-0.018518297
23	0xbd5e00d4	-0.05420001
24	0xbdb6d753	-0.089277886
25	0x3e10725c	0.14106125
26	0xbe057398	-0.13032377
27	0x3d3ccb4f	0.046092328
28	0xbd7bf9e5	-0.061517615
29	0xbdd345ac	-0.10316023
30	0xbdc3a3fd	-0.09552763
31	0x3e011972	0.12607363
32	0xbdca2eff	-0.09872245
33	0xbdc1b456	-0.094582245
34	0xbe132b70	-0.14372039
35	0x3d835aa3	0.06413772
36	0xbd5af37a	-0.053454854
37	0x3e47fb73	0.19529514
38	0x3d21e154	0.03952153
39	0x3e2e2f0e	0.17010137
40	0xbd2b04ac	-0.041752502
41	0x3d768ed3	0.0601948
42	0x3e349553	0.17635088
43	0xbcda9acb	-0.02668514
44	0x3d91dd92	0.07122339
45	0x3c6c5ca8	0.014426388
46	0x3dfd0587	0.1235457
47	0x3cad84fe	0.02118158
48	0x3e39f245	0.18158825
49	0xbd875ea6	-0.0660985
50	0x3d1530cc	0.03642349
51	0xbd7083fe	-0.058719628
52	0x3e3ce7c6	0.1844779
53	0x3dd992a4	0.106236726
54	0x3e0fde71	0.14049698
55	0x3de29df1	0.11065281
56	0xbc31aa7e	-0.010843871
57	0xbda127e5	-0.078689374
58	0x3d4f7934	0.050652698
59	0xbddedc1a	-0.10881825
60	0xbc03deaa	-0.008048693
61	0xbe23ddad	-0.16002531
62	0x3d106c56	0.035259567
63	0x3deb3671	0.11484993
64	0xbb5dfe8c	-0.0033873646
65	0x3e08c90a	0.1335794
66	0x3c3cf255	0.011532386
67	0x3dd95da0	0.10613561
68	0x3da366c8	0.07978588
69	0x3e0bf58f	0.13667892
70	0x3d1d5f6e	0.038421087
71	0xbd7e4bb2	-0.062083907
72	0x3c938454	0.018007435
73	0xbdd498a2	-0.10380675
74	0x3da5c9c9	0.08095128
75	0x3d5cfe73	0.0539536
76	0x3d492f04	0.049117103
77	0xbd32c462	-0.043644316
78	0xbe09ac8a	-0.13444725
79	0xbe1b8fe5	-0.1519161
80	0x3d0724d1	0.032994095
81	0xbdbc2667	-0.09187012
82	0xbdce80f4	-0.100831896
83	0x3df77295	0.12082402
84	0xbe008639	-0.12551202
85	0x3d12de25	0.035856385
86	0x3d0781d6	0.033082806
87	0x3ddb255b	0.10700484
88	0xbcc49c98	-0.024000451
89	0xbe26a736	-0.16274723
90	0x3db2af2e	0.08724819
91	0xbd808492	-0.06275286
92	0x3cf2a061	0.02961749
93	0x3e06ee94	0.13176948
94	0x3c19029f	0.009339004
95	0x3cfa5b8b	0.03056123
96	0x3b37d375	0.0028049622
97	0xbdb0a0c2	-0.08624412
98	0xbb897c7f	-0.0041957493
99	0xbcfcb146	-0.03084625
100	0xbda51b87	-0.08061891
101	0x3e0af8d3	0.13571481
102	0xbe86f673	-0.263599
103	0xbd7c2dac	-0.061566994
104	0x3db59a20	0.08867288
105	0xbe579a71	-0.21055008
106	0xbe239bac	-0.15977353
107	0xbd3c8b6f	-0.04603141
108	0xbd2b2feb	-0.041793745
109	0x3e21d77a	0.15804854
110	0x3e2704d2	0.16310433
111	0x3e434d9d	0.19072576
112	0x3daddf66	0.084898755
113	0x3d9e1d89	0.07720477
114	0x3d86911f	0.065706484
115	0xbe1748fe	-0.14773938
116	0xbe4d03db	-0.20021002
117	0xbbb8ce29	-0.0056398106
118	0x3dc47c9c	0.0959408
119	0xbd882e36	-0.06649439
120	0xbdbfbb6c	-0.0936192
121	0x3d66e5f3	0.05637164
122	0xbdb5525e	-0.08853601
123	0x3d211682	0.039328106
124	0xbe17e3ab	-0.14832942
125	0x3dd6b66a	0.104840115
126	0xbe659758	-0.22421014
127	0xbd373679	-0.044729684
128	0x3de51db5	0.11187307
129	0x3d12f2be	0.03587603
130	0xbda2f6b2	-0.0795721
131	0xbc55f210	-0.0130582005
132	0x3e3e2eb3	0.18572502
133	0x3c557d73	0.013030398
134	0xbe43f43c	-0.19136137
135	0x3d9bee7f	0.07613849
136	0xbd497f9e	-0.04919397
137	0x3d69df93	0.057097983
138	0x3ddca76d	0.107741214
139	0x3e34e7b8	0.17666519
140	0x3df262e8	0.11835271
141	0xbe26a04b	-0.16272084
142	0xbdbd8a56	-0.09254901
143	0xbe08894d	-0.13333626
144	0xbd998bb4	-0.074973494
145	0xbdea3670	-0.114361644
146	0xbe576853	-0.2103589
147	0x3dad2962	0.08455159
148	0xb994e8ab	-0.0002840211
149	0x3e373714	0.17892104
150	0x3db49293	0.08817019
151	0xbd81b1e1	-0.06332756
152	0xbde74c7e	-0.112938866
153	0x3d5c08c8	0.053719312
154	0xbde4a8c1	-0.11165
155	0xbd65ce28	-0.05610481
156	0xbdbd3316	-0.092382595
157	0x3d04dd83	0.032437813
158	0xbba94e70	-0.005166821
159	0xbd2c4d13	-0.04206569
160	0x3e0ca9de	0.13736674
161	0xbdc0352c	-0.09385142
162	0x3d62da1e	0.055383794
163	0xbd51db9e	-0.051234834
164	0x3da5466d	0.08070073
165	0xbddd53fa	-0.10807033
166	0x3dc86524	0.09784916
167	0xbdbc714f	-0.092012994
168	0xbd486a0e	-0.048929267
169	0xbdc8db26	-0.09807424
170	0x3d3ad2ad	0.045611072
171	0x3ca21d52	0.019789372
172	0x3c6f14f8	0.014592402
173	0xbd6b4fa9	-0.057449017
174	0xbdad75b2	-0.08469714
175	0xbdbc2dae	-0.091884
176	0xbe0ab775	-0.13546546
177	0xbd2e4cdb	-0.042553764
178	0xbde3726c	-0.111058086
179	0xbd7a1252	-0.061052628
180	0x3d4e3964	0.0503477
181	0x3ceefeb9	0.029174196
182	0xbdac254c	-0.08405551
183	0x3da87642	0.08225681
184	0x3da565f6	0.08076088
185	0x3d51d101	0.051224712
186	0xbd93549c	-0.07193872
187	0x3d557bfe	0.0521202
188	0x3d8ac899	0.06776542
189	0x3b7e939d	0.0038845309
190	0x3d5c1f32	0.053740688
191	0xbdeadbaa	-0.11467679
192	0xbdfcf59a	-0.12351532
193	0xbcaaa567	-0.020830823
194	0xbcbbb543	-0.02291358
195	0xbdbe0842	-0.09278919
196	0xbd2a4e84	-0.041578785
197	0xbd054cf3	-0.032544088
198	0xbe1938a6	-0.14963016
199	0xbdad3702	-0.084577575
200	0xbd15cfce	-0.03657513
201	0x3dacf80f	0.08445751
202	0xbd7cc0c9	-0.06170729
203	0x3d27cdb7	0.04096767
204	0xb99645bb	-0.00028662183
205	0xbe239dbd	-0.15978141
206	0x3bcc28c5	0.006230446
207	0x3d362b94	0.044475153
208	0xbd918117	-0.071047
209	0x3d99bb01	0.07506371
210	0xbd9a04f0	-0.07520473
211	0xbd44cff4	-0.048049882
212	0x3db97d6f	0.09057128
213	0x3e2315c1	0.15926267
214	0xbdc6ba73	-0.09703531
215	0x3c585f64	0.013206337
216	0x3df3294d	0.11873112
217	0xbca81711	-0.020518811
218	0x3d81774d	0.06321583
219	0xbdc4b499	-0.09604759
220	0x3d301921	0.042992715
221	0x3cb3ba36	0.021939378
222	0x3da17a70	0.07884681
223	0xbd48d1d6	-0.04902824
224	0x3d388e47	0.04505756
225	0xbd7b0a26	-0.061288975
226	0xbdfeaaa9	-0.124348946
227	0xbd96d0c5	-0.073640384
228	0x3d1d8083	0.038452636
229	0xbdb73233	-0.089451216
230	0x3d8ad2e0	0.067785025
231	0x3c111793	0.008855718
232	0xbd051cc3	-0.032498132
233	0x3d937f77	0.07202046
234	0xbe1b1efd	-0.1514854
235	0xbdd63150	-0.10458624
236	0x3cfdd3f1	0.03098485
237	0xbddfbbdb	-0.109245025
238	0xbdae25e6	-0.08503322
239	0x3dc8efdf	0.09811377
240	0x3cdab0ff	0.026695726
241	0xbd8e875e	-0.06959413
242	0x3dfa898b	0.122332655
243	0xbe15e7ec	-0.14639252
244	0xbd2d8aa8	-0.04236856
245	0xbdf34b67	-0.11879616
246	0x3c9b74e1	0.01897663
247	0xbd09e2f8	-0.03366372
248	0xbcf01cfb	-0.029310694
249	0xbe1edcfe	-0.1551399
250	0x3d8f2641	0.06989718
251	0x3dcfe9ff	0.10152053
252	0x3e028c7f	0.12748908
253	0x3dd606db	0.10450526
254	0xbce43198	-0.02785568
255	0xbde3e1ab	-0.11127027

lstm.bias_ih_l0 f4 [200]
0	0x3e101c9e	0.14073417
1	0xbd9b14e9	-0.07572348
2	0x3e0436a9	0.12911476
3	0xbdcd232e	-0.100164756
4	0x3c060d80	0.00818193
5	0xbd7ebbfe	-0.062191002
6	0x3d8745cb	0.06605109
7	0xbe16389b	-0.14670031
8	0x3d8a7996	0.06761472
9	0xbdde87db	-0.10865756
10	0xbdc0c930	-0.094133735
11	0x3d3ca147	0.046052244
12	0x3bf72fa4	0.007543521
13	0xbd8a2198	-0.06744689
14	0xbcd38094	-0.025818147
15	0xbde7a1b3	-0.113101386
16	0x3d65fc10	0.05614859
17	0x3e04c50a	0.1296579
18	0xbe1df36b	-0.15424888
19	0xbd8270fa	-0.06369205
20	0xbe02bbcc	-0.12766951
21	0x3e3f9160	0.187078
22	0x3d93138a	0.07181461
23	0x3d957cad	0.07299171
24	0xbd2ccf5e	-0.04218995
25	0xbd4b4cea	-0.049633898
26	0x3be53dab	0.006995877
27	0x3dd711ea	0.10501464
28	0x3d645218	0.055742353
29	0xbd179d29	-0.037015114
30	0x3b6f0f71	0.003647771
31	0xbdda8294	-0.10669437
32	0x3d18aed6	0.03727611
33	0x3d62d61f	0.055379983
34	0xbdfa09cb	-0.12208899
35	0xbdbdfc67	-0.092766576
36	0xbca8261e	-0.020525988
37	0xbdd97c83	-0.10619452
38	0xbe040478	-0.1289233
39	0xbd4d0283	-0.050051223
40	0x3dedf1ba	0.11618371
41	0x3e11f790	0.14254594
42	0x3c8e7702	0.017390732
43	0x3dc7318a	0.09726246
44	0x3c4006bb	0.011720355
45	0x3e13293a	0.14371195
46	0x3cf66151	0.030075701
47	0xbde7b25e	-0.11313318
48	0x3d9462ed	0.07245431
49	0xbdddcfa1	-0.10830618
50	0xbd80bfbd	-0.06286571
51	0x3de220c0	0.11041403
52	0x3d506931	0.05088157
53	0xbde387ad	-0.111098625
54	0x3c47eca4	0.012202416
55	0x3def9c8a	0.11699779
56	0xbd215704	-0.039389625
57	0x3d85dbc7	0.0653606
58	0x3c403426	0.011731183
59	0x3def184b	0.116745554
60	0xbd253fbb	-0.04034398
61	0xbdf593ba	-0.11991067
62	0xbe09a23f	-0.13440798
63	0x3d11035d	0.035403598
64	0x3d9d5364	0.07681921
65	0x3d852795	0.0650169
66	0xbdb024c1	-0.0860076
67	0x3cdb090e	0.026737716
68	0xbd2bcfb7	-0.04194614
69	0xbccbae7d	-0.024863476
70	0xbd68a508	-0.05679801
71	0x3e09a08f	0.13440154
72	0xbdf13592	-0.11777796
73	0xbe000f02	-0.12505725
74	0xbd3918cf	-0.045189675
75	0x3cb010cb	0.021492383
76	0x3d18707c	0.03721665
77	0x3d601e7b	0.05471657
78	0xbda23977	-0.07921117
79	0x3d2d3f52	0.042296715
80	0x3e0716d4	0.13192302
81	0xbd9299fe	-0.07158278
82	0x3e0b501a	0.13604775
83	0xbe26c5c5	-0.1628638
84	0x3c125fdd	0.008933988
85	0xbd47dc41	-0.048794035
86	0x3db5acf7	0.08870881
87	0x3d2f2c1c	0.042766675
88	0xbd4665c4	-0.048436895
89	0xbe01bd64	-0.12669903
90	0xbdcc630b	-0.099798284
91	0x3da97151	0.082735665
92	0xbd980bcd	-0.07424126
93	0x3ded9e84	0.116025
94	0x3d11309b	0.035446744
95	0x3d3f9fbe	0.0467832
96	0xbe03585a	-0.12826672
97	0x3d95f42c	0.07321963
98	0x3d4fc764	0.050727263
99	0xbb149551	-0.0022672007
100	0xbe1091c1	-0.141181
101	0xbd246fe5	-0.040145773
102	0xbdcfb685	-0.10142235
103	0xbe061d84	-0.13097197
104	0xbd7c3f1a	-0.061583616
105	0xbde103ce	-0.10987054
106	0x3cd956b0	0.026530594
107	0xbd7a888f	-0.06116539
108	0xbd8cdf0d	-0.06878481
109	0x3db17187	0.08664232
110	0x3cec4815	0.028842965
111	0xbc129f34	-0.00894909
112	0x3de60c7d	0.11232851
113	0xbbca2a62	-0.006169603
114	0x3c9b97a9	0.018993216
115	0x3dbb0602	0.09132005
116	0xbdedff30	-0.11620939
117	0xbde6070e	-0.11231814
118	0xbd6c1a2f	-0.057642158
119	0x3dae10dd	0.0849931
120	0xbdadb73f	-0.08482217
121	0xbd4a8f8d	-0.049453307
122	0xbda58f46	-0.08083968
123	0xbda12337	-0.07868045
124	0x3df01c6e	0.117241725
125	0xbd59b896	-0.05315455
126	0xbd37bed2	-0.044859715
127	0x3b8ff645	0.0043933713
128	0x3e0702a6	0.13184604
129	0xbdc114ea	-0.09427817
130	0xbcd860db	-0.026413372
131	0x3d9f8033	0.07788124
132	0x3b897d8b	0.004195874
133	0xbd2df948	-0.04247406
134	0xbd887f8a	-0.06664951
135	0xbe126883	-0.1429768
136	0xbdffbe6c	-0.12487492
137	0x3b919519	0.0044428227
138	0x3dc5b35c	0.09653351
139	0x3d80d8e8	0.062913716
140	0x3dd036b2	0.10166682
141	0x3d49c71f	0.049262162
142	0xbc8f89de	-0.017521795
143	0xbdc52ffc	-0.09628293
144	0xbc3796ec	-0.011205416
145	0x3d4ce7f8	0.05002591
146	0x3aa87b2d	0.0012854092
147	0x3d6a3daf	0.057187732
148	0x3d4a45ea	0.04938308
149	0x3c3f0cba	0.011660749
150	0x3e12a1cd	0.14319535
151	0x3da52c2f	0.08065068
152	0x3d3cb9ff	0.046075817
153	0x3dc05ebe	0.09393071
154	0xbdf620f7	-0.12018006
155	0x3d9dbe40	0.07702303
156	0x3d2025c1	0.039098505
157	0x3d7f541b	0.06233607
158	0xbd38d48b	-0.04512457
159	0xbdc41002	-0.09573366
160	0x3d67e281	0.056612495
161	0x3e2b50f9	0.16730107
162	0xbde0ad4f	-0.10970556
163	0x3c916332	0.017747495
164	0x3c933280	0.017968416
165	0xbbcc530c	-0.006235486
166	0x3dcef580	0.10105419
167	0xbd210aac	-0.039316818
168	0xbdb7233b	-0.089422666
169	0xbe1ff75b	-0.15621702
170	0x3c9cc369	0.019136148
171	0x3e4ae020	0.1981206
172	0x3d1e6ad6	0.038676105
173	0x3d1a3d7c	0.037656292
174	0x3de4f45e	0.11179422
175	0x3d8a196d	0.06743131
176	0xbde77743	-0.11302044
177	0x3e06088d	0.130892
178	0x3df646b0	0.12025201
179	0xbe16d3d8	-0.1472925
180	0x3df43b3c	0.119253606
181	0xbe1f8f1e	-0.15581939
182	0x3e0563d1	0.13026358
183	0xbe150e2b	-0.14556186
184	0x3dd2d7cc	0.10295066
185	0x3d8ca2e4	0.068670064
186	0x3e224948	0.15848267
187	0xbd992059	-0.07476873
188	0xbd9b7707	-0.07591062
189	0xb8382a00	-4.3908134e-05
190	0xbd69c790	-0.057075083
191	0x3d61791f	0.05504715
192	0xbdde26c0	-0.10847235
193	0xbe090e9b	-0.13384478
194	0xbd4806a5	-0.04883446
195	0xbdb11a08	-0.08647543
196	0x3db4c340	0.088263035
197	0xbd76a08b	-0.0602117
198	0xbde4d37f	-0.11173152
199	0x3d9e3715	0.0772535

lstm.bias_hh_l0 f4 [200]
0	0x3e50c889	0.20388998
1	0xbd72fd1f	-0.059323426
2	0x3d5a15ea	0.053243555
3	0xbdbf1394	-0.09329906
4	0xbc9b6578	-0.018969283
5	0xbdbbd5c8	-0.09171635
6	0xbe0fec3a	-0.14054957
7	0xbdcd36f4	-0.10020247
8	0x3da33aaf	0.079701774
9	0x3dec77a5	0.11546258
10	0xbde22404	-0.11042026
11	0x3c8b9d22	0.0170427
12	0x3d0810bd	0.033219088
13	0x3d0fdbd8	0.03512177
14	0x3da184f5	0.07886688
15	0xbcd2157a	-0.025645006
16	0xbdd90eb9	-0.10598511
17	0x3e12798e	0.14304182
18	0xbd7c4778	-0.061591595
19	0xbe304f34	-0.17217714
20	0xbd599861	-0.053123835
21	0x3e00e517	0.12587391
22	0xbde489df	-0.11159109
23	0xbdbe5577	-0.09293645
24	0x3e36bd58	0.17845666
25	0xbe1060e9	-0.14099468
26	0xbda20fa1	-0.07913137
27	0xbdc099d5	-0.09404341
28	0x3da236f5	0.079206385
29	0xbd9ff578	-0.07810491
30	0x3ca355ee	0.019938435
31	0x3d5be1cf	0.053682145
32	0x3db22c90	0.08699906
33	0x3da5b23e	0.080906376
34	0x3d7f153b	0.062276106
35	0x3d8464d7	0.06464546
36	0xbd71f0c6	-0.05906751
37	0x3b8c28df	0.004277333
38	0x3dc94127	0.0982688
39	0x3d3e0427	0.04639068
40	0x3dca3d23	0.09874942
41	0x3dc8be19	0.09801883
42	0x3d88989f	0.06669735
43	0xbe0fd26c	-0.14045113
44	0xbda8ba24	-0.082386285
45	0xbd09928e	-0.03358703
46	0x3db565a1	0.08857275
47	0x3d95e3ba	0.07318826
48	0xbcb0cd34	-0.021582223
49	0x3dfdb536	0.12388079
50	0x3d85423c	0.06506774
51	0x3d9f8819	0.077896304
52	0x3e33f9ae	0.17575714
53	0x3dd48f5e	0.103789076
54	0x3de60e1e	0.112331614
55	0xbc2bffc1	-0.010497988
56	0xbdb83f3a	-0.089964345
57	0xbbbc1529	-0.005739827
58	0xb9bd0472	-0.000360522
59	0xbd57df35	-0.0527031
60	0x3b1527ed	0.0022759393
61	0x3e011dab	0.12608974
62	0xbe134588	-0.14381993
63	0x3de2911c	0.11062834
64	0x3dd5f48c	0.10447034
65	0xbc9b05dd	-0.018923694
66	0xbde8af5d	-0.11361573
67	0xbdca5d5f	-0.098810904
68	0xbd39bf5b	-0.045348506
69	0xbdc96c0c	-0.098350614
70	0xbc9756d2	-0.018474016
71	0xbdc7d0d7	-0.0975663
72	0x3bcf049e	0.006317689
73	0x3dfa76ed	0.122297145
74	0x3da87554	0.082255036
75	0xbd056470	-0.032566488
76	0x3cd3ebc9	0.025869267
77	0x3d022fbe	0.03178381
78	0xbde3dbf8	-0.1112594
79	0xbda77a24	-0.08177593
80	0xbd533fde	-0.05157458
81	0x3cf5025a	0.029908348
82	0xbd552ca1	-0.052044515
83	0xbd64b606	-0.055837654
84	0x3d84815d	0.064699866
85	0x3b9811bc	0.004640786
86	0x3d8c8d99	0.06862945
87	0xbc9a5b2e	-0.018842306
88	0xbcd5d294	-0.026101388
89	0x3de31a06	0.11088948
90	0xbc6ff712	-0.0146463085
91	0x3cedc869	0.029026227
92	0xbdca17c0	-0.09867811
93	0xbe01499d	-0.12625737
94	0x3c819071	0.015815945
95	0x3da5bf92	0.0809318
96	0xbe1823bf	-0.14857386
97	0xbdadcc82	-0.084862724
98	0xbdff4d69	-0.12465937
99	0xbce75ddb	-0.028242996
100	0x3ceb853f	0.02875006
101	0x3d002de0	0.03129375
102	0xbd5d5bbe	-0.05404257
103	0xbca582f0	-0.020204037
104	0xbdfb82d4	-0.12280813
105	0x38ef2a26	0.00011404259
106	0xbdf5e6fb	-0.12006947
107	0xbde38a0b	-0.11110314
108	0xbb364372	-0.0027811197
109	0xbc8c4c3f	-0.0171262
110	0x3d4d5eca	0.050139226
111	0x3d98fe9b	0.07470437
112	0xbbf81b78	-0.007571634
113	0xbdb7b329	-0.08969719
114	0xbce1feb7	-0.027587278
115	0xbda151f2	-0.07876958
116	0xbce4f6e5	-0.02794976
117	0x3d6ab0b4	0.057297423
118	0xbcedfaa3	-0.029050177
119	0x3df8b47f	0.12143802
120	0xbd7c7aa3	-0.061640393
121	0x3cc87dbc	0.024474017
122	0xbc707608	-0.014676578
123	0xbe0f9e9f	-0.14025353
124	0xbe056c7d	-0.13029666
125	0x3cc3b5b6	0.023890357
126	0xbd0727ab	-0.032996815
127	0xbdad9898	-0.084763706
128	0x3dc5aba1	0.09651876
129	0xbcb07097	-0.021538062
130	0xbdf8f7ba	-0.12156625
131	0x3d461fbf	0.04837012
132	0x3dddb6dd	0.10825894
133	0xbd02210f	-0.03176981
134	0xbdacdefe	-0.0844097
135	0x3db7abb1	0.089682944
136	0x3d8a17e9	0.06742842
137	0xbd28781b	-0.041130167
138	0x3d7eda36	0.06221982
139	0x3d4d4254	0.050112084
140	0x3dde1546	0.10843901
141	0xbdf54969	-0.119768925
142	0x3d9202ec	0.071294636
143	0x3deff51c	0.11716673
144	0xbddce6db	-0.1078622
145	0xbcd37088	-0.025810495
146	0xbda7ae20	-0.081875086
147	0x3d573e29	0.052549515
148	0x3cea0fa5	0.028571913
149	0x3d6fa253	0.058504414
150	0xbc936109	-0.017990606
151	0x3d85e4e5	0.06537799
152	0x3e06115e	0.13092563
153	0x3c853633	0.016261196
154	0xbe1179a4	-0.14206558
155	0x3df15e69	0.117855854
156	0xba958e93	-0.0011410288
157	0xbde4350d	-0.11142931
158	0x3d14febe	0.036375754
159	0x3e0b4ddb	0.13603918
160	0xbb73d83f	-0.003720775
161	0x3d1ed662	0.03877867
162	0x3d86fa3d	0.06590698
163	0xbc54c961	-0.012987466
164	0xbd2fe513	-0.04294307
165	0xbd2be565	-0.041966815
166	0x3d13261c	0.035925016
167	0x3d580957	0.052743282
168	0xbe1ec759	-0.15505733
169	0xbd86d0a4	-0.06582764
170	0x3de11d4c	0.10991916
171	0x3e477a7e	0.19480321
172	0x3ded6abe	0.11592625
173	0xbd5ed4cf	-0.05440217
174	0x3e088eb4	0.13335687
175	0x3d6207df	0.055183288
176	0x3bcce51a	0.006252897
177	0x3c70c228	0.014694728
178	0xbcf38351	-0.029725702
179	0x3b5d12a4	0.0033733035
180	0x3e1c9636	0.15291676
181	0x3db402fa	0.0878963
182	0xbd80dde6	-0.06292324
183	0x3cebd2f4	0.028787114
184	0x3d38f9ba	0.045160033
185	0xbe07dc29	-0.13267578
186	0x3d53715c	0.05162178
187	0x3dc87026	0.097870156
188	0x3d9705c1	0.07374144
189	0x3e16b1ce	0.14716265
190	0xbc0fd395	-0.008778472
191	0x3da89c67	0.082329564
192	0xbdc8d0e7	-0.0980547
193	0x3dd21aad	0.10258994
194	0xbdc50ae2	-0.09621216
195	0xbd559910	-0.052147925
196	0xbd9a5fd7	-0.07537811
197	0xbdd67fed	-0.10473619
198	0xbda58155	-0.08081309
199	0x3d0922a1	0.03348029

fc.weight f4 [1, 50]
0	0x3e404aad	0.18778487
1	0x3db9b795	0.090682186
2	0x3e2515c0	0.16121578
3	0xbcc034f0	-0.023462743
4	0xbd2e2b83	-0.042521965
5	0x3d735640	0.059408426
6	0x3dac81fb	0.08423229
7	0x3d22ade3	0.039716613
8	0xbe46c1da	-0.19409886
9	0x3d33ce9c	0.04389821
10	0xbe1d7390	-0.15376115
11	0xbd1e25a8	-0.03861013
12	0x3be46e8e	0.006971187
13	0xbd3325f3	-0.043737363
14	0xbe189e17	-0.14904056
15	0x3bb5e612	0.005551108
16	0xbd797dc0	-0.06091094
17	0xbe03a713	-0.12856703
18	0x3d8a5d01	0.0675602
19	0x3dc9e8cf	0.09858858
20	0xbdc885be	-0.09791134
21	0x3db1a807	0.08674627
22	0x3d24c785	0.04022934
23	0xbddcae9c	-0.107754916
24	0x3e52669a	0.20546952
25	0xbdc38cb8	-0.09548324
26	0x3db75c31	0.08953131
27	0xbe145df8	-0.14488971
28	0x3d0a336f	0.033740457
29	0xbb3e0a16	-0.002899771
30	0xbe2f28d1	-0.17105414
31	0xbd9f1f53	-0.077696465
32	0xbdde864c	-0.10865459
33	0x3cc6f81a	0.024288226
34	0x3dc5b546	0.09653716
35	0x3d25f354	0.04051526
36	0xbd8ea6b5	-0.069653906
37	0x3db6636c	0.08905682
38	0x3d658b5c	0.056041107
39	0xbdbe9189	-0.093051024
40	0xbd72588f	-0.059166487
41	0x3e658a0d	0.22415943
42	0x3e05d97a	0.13071242
43	0x3d2495c9	0.04018191
44	0xbd60da22	-0.054895528
45	0x3dac5be3	0.084159635
46	0xbdb28002	-0.08715822
47	0x3dc88b38	0.09792179
48	0x3e1b3207	0.15155803
49	0x3dc55c87	0.09636789
