Drift_detection/lstm_model.pth (torch, 51494 bytes, 5 tensors)

lstm.weight_ih_l0 f4 [200, 9]
000000 6d 52 25 3e 51 e6 f6 bc d0 19 a8 bd ac 6c d0 3d
       0.16144724 -0.03013912 -0.08208048 0.101769775
000010 61 40 01 bd 71 e8 72 bd a9 20 19 be 17 7a 98 3d
       -0.031555537 -0.059303705 -0.14953865 0.07445162
000020 24 07 a7 bc 9d 03 ac 3d 5a ea b7 bc 6a 87 6d 3d
       -0.020389147 0.08399127 -0.022450615 0.05799047
000030 ae a6 ce bd 26 52 f3 3d f8 7b dc 3d f5 0d 0f be
       -0.100903854 0.11880903 0.10765833 -0.13970168
000040 5c 64 1f be 53 cc 04 be b5 d9 39 bd 72 59 5b 3d
       -0.15565628 -0.12968569 -0.045373637 0.0535521
000050 19 b1 04 3e df 9b 27 3e bb 4f 63 bc 5f 45 72 bd
       0.12958182 0.16368054 -0.01387399 -0.05914819
000060 b8 c0 3d bd 57 03 a7 3d 6d 48 e3 bc ca 72 c7 bc
       -0.04632637 0.08154934 -0.027744496 -0.024346728
000070 02 99 96 bd b0 90 1c be 17 e7 c7 bd 1a dd aa ba
       -0.07353403 -0.15289569 -0.09760874 -0.0013035864
000080 66 db 9a 3c bb 44 2c bd df 80 87 3d 1f fb f4 3c
       0.018903445 -0.042057734 0.06616377 0.0299049
000090 a5 19 90 bc 09 56 08 3e 91 0f 19 3e 1f d6 81 bd
       -0.017590353 0.1331407 0.14947344 -0.063396685
0000a0 a4 8b ff bd 86 e6 a1 bd 59 56 cc 3d f3 c1 ce bd
       -0.12477806 -0.07905297 0.09977407 -0.10095587
0000b0 52 26 21 bd 9a dd f9 3d 21 f1 06 3e 3e 78 46 bc
       -0.039343186 0.1220047 0.13177921 -0.012113629
0000c0 13 65 76 3c e4 18 17 bd 89 a7 9b bd fa 8d 1e 3c
       0.015038746 -0.036888972 -0.07600314 0.009677405
0000d0 b0 85 99 3d 46 35 05 be c8 f2 46 bd 2c b2 d3 3d
       0.07496202 -0.13008603 -0.048571378 0.10336718
0000e0 f0 8c e8 3c a7 bf ca 3d 20 af 2c 3e ff 5b cc 3d
       0.028387517 0.09899836 0.1686368 0.09978484
0000f0 46 85 b4 3d 69 f7 01 be 66 e6 17 bd 34 5b 76 3d
       0.088144824 -0.12692036 -0.03708496 0.06014557
000100 81 ca 1f 3e 16 f3 be 3d eb 79 92 3d c4 33 99 3e
       0.15604593 0.09323709 0.0715216 0.29922307
000110 79 57 32 3d 55 cc a2 bd 6a ef cf 3d e5 f5 55 3e
       0.04354045 -0.079491295 0.101530865 0.20894583
000120 5f 4b 09 bd 04 8c 2b 3e 9c 04 07 bd 75 f4 18 3c
       -0.033519145 0.1675263 -0.03296338 0.009335627
000130 b1 c7 1f 3e 08 0b 3a bd d3 6b 47 bd 2f 05 b1 3d
       0.1560352 -0.045420676 -0.048686814 0.08643567
000140 82 99 c3 3d a3 22 1f bc 4c ab 52 bd b9 bf 96 3d
       0.09550764 -0.009712848 -0.051432893 0.07360787
000150 82 f0 34 3e e3 57 45 3e 92 8b 3a 3e 36 be 8e bc
       0.17669871 0.19271807 0.18217304 -0.017424684
000160 cf 30 cb bd 50 62 f2 3c 09 88 9f 3d 2e c6 f6 bd
       -0.09921419 0.029587895 0.077896185 -0.120495185
000170 a9 5e 1f be 2e 8c e4 bd 4e be a4 bd 47 a5 dc bd
       -0.15563454 -0.1115955 -0.0804411 -0.10773712
000180 22 a7 ff 3c 87 0b fb 3c 83 4b 91 bd a6 30 dc 3c
       0.031207625 0.030645145 -0.07094481 0.026878666
000190 8d 41 95 bc c6 38 a3 bc 97 0e 06 3c 8f 9a fa bb
       -0.018219734 -0.019924533 0.008182189 -0.0076478194
0001a0 58 cf 56 3c 57 9f 22 3e 5f e2 fb bd 2a 1f 97 3b
       0.013110958 0.15881096 -0.12299036 0.0046118693
0001b0 52 16 29 3e f6 8a 15 3e e3 d5 24 bd e9 e2 ba 3d
       0.16512421 0.1460379 -0.04024304 0.09125311
0001c0 e1 0d 79 3e 82 ba 1f 3e a9 32 95 3d 9c 48 6e bc
       0.243217 0.15598491 0.07285053 -0.014543679
0001d0 8c b8 82 3d 5c 3b 4d 3d 8a 63 a7 bd b3 53 c3 3d
       0.06382856 0.050105438 -0.081732824 0.09537449
0001e0 e9 db 74 bd 7b 12 13 be 15 27 9d 3d 33 96 b4 bd
       -0.059780035 -0.14362518 0.0767347 -0.08817711
0001f0 9c 89 24 be 14 55 e7 bd a7 8c d1 bd b0 27 cc 3c
       -0.16068119 -0.11295524 -0.102319054 0.024921268
000200 ec 06 93 bd b1 d5 db 3d 93 7f fe bc 65 e0 c6 3d
       -0.071790546 0.10734118 -0.031066692 0.097107686
000210 75 33 ab 3d d1 f2 76 bd 1b 22 ec bd 24 98 07 3e
       0.08359424 -0.06029016 -0.115299426 0.13241631
000220 92 97 fe 3d 30 25 4e bd 84 42 26 3d 87 0f 1c 3e
       0.124312535 -0.050328434 0.040590778 0.15240298
000230 d6 be 37 bc 57 78 26 be 43 41 dd bd 1d 9a c2 bc
       -0.011214932 -0.16256844 -0.10803463 -0.023755128
000240 b9 b3 87 3d 15 45 ac bd 46 bf 6e bd 8c 89 ff bd
       0.06626076 -0.08411614 -0.05828788 -0.12477407
000250 d4 40 27 3d 36 82 c6 3d cf 1c 9d bd 20 7a 8e 3d
       0.04083331 0.096928045 -0.076715104 0.06956887
000260 e6 7a 97 bd 27 b1 39 3e d8 43 a6 bc 38 21 3e 3e
       -0.07396488 0.18133985 -0.020296022 0.1856736
000270 9b 9f d7 3b c9 ce 17 bc 40 9b 42 3c d2 16 cc 3d
       0.0065803058 -0.00926561 0.011877835 0.0996529
000280 26 fb 29 3e 58 aa a2 3c 5a 6d 8a bb 0b 17 ac bd
       0.16599712 0.019856617 -0.0042244615 -0.084028326
000290 00 ef fa bd d6 aa b9 3c 6a a6 f9 3c 8b 45 ef bd
       -0.12252617 0.022664469 0.03047486 -0.11683186
0002a0 20 b8 91 bb e3 29 5d bd b5 74 fd 3d e3 53 a1 bd
       -0.0044469982 -0.053995024 0.12375776 -0.07877328
0002b0 62 34 97 bd 22 e1 ec bc f6 c9 e1 3c 64 eb 4a 3d
       -0.07383038 -0.028915945 0.027562123 0.049540892
0002c0 92 41 ef 3c fb 0d 0b be 1b 0d 17 3e 7e 6c 6d 3d
       0.029206071 -0.13579552 0.14751093 0.057964794
0002d0 6c 62 15 3e be 27 28 3e 64 29 44 3e f5 95 f5 3d
       0.14588326 0.1642141 0.19156414 0.11991493
0002e0 d3 27 ec bb 4c 0d 05 3e 41 47 ba bc a4 34 a4 3c
       -0.007206896 0.12993354 -0.022739055 0.020044632
0002f0 bc 7e 2c 3c 2e f5 6c 3c 3e e4 37 3e 8f ce e3 3d
       0.010528263 0.014462752 0.17958161 0.11123382
000300 0c 18 a9 3d 6a 0c 6e 3d 4a 24 8a bd 6e 14 b5 3d
       0.0825654 0.058117308 -0.06745203 0.08841787
000310 90 d5 10 be 7c 5c 06 be 82 18 1c 3e 42 b9 0e 3d
       -0.14143968 -0.13121217 0.15243724 0.034844644
000320 94 79 1f 3e 8c e4 f5 3d 30 59 2b be bd 58 2a bd
       0.15573722 0.120064825 -0.16733241 -0.041588534
000330 45 63 fd bd 2d 8e 3f be 45 3d 0d 3d ae 2c b7 bc
       -0.1237245 -0.1870658 0.03448226 -0.022360172
000340 bb 14 d1 3c fc 00 e0 bd 04 76 0e be 87 82 90 be
       0.02552258 -0.10937688 -0.13912207 -0.28224584
000350 44 eb ab bd 69 9e 24 be 10 78 5b be 6c b9 33 be
       -0.08394483 -0.16076054 -0.21432519 -0.17551202
000360 2e 8c 0c bb a6 25 83 3e 99 7f f7 3d 2d 74 0c 3e
       -0.0021445858 0.2561466 0.12084884 0.13716193
000370 89 6f 2b 3e 63 05 c2 3e 71 03 6b bd 71 e7 b9 bd
       0.16741766 0.37894735 -0.05737633 -0.09077347
000380 74 32 a8 3d d0 90 6b bd 29 fa 6c bd b2 c6 65 3d
       0.08212748 -0.05751115 -0.05785576 0.056097694
000390 19 51 85 3c d6 c5 f2 3d 9e 1b 9e 3d 68 1a 56 3d
       0.016274022 0.118541405 0.07720111 0.052271277
0003a0 8c bc 48 bc 9e 9b 6f 3d 50 36 8b 3d 32 90 18 be
       -0.012251984 0.058498017 0.06797469 -0.14898756
0003b0 bc a1 31 3d 28 da fe bd 69 77 45 3e e4 94 ce bd
       0.043367133 -0.12443954 0.19283833 -0.100869924
0003c0 11 93 c8 bd 72 05 85 3d 9a c6 1d bb f9 5a 27 be
       -0.09793676 0.06495179 -0.0024074675 -0.16343297
0003d0 fe 8e 83 3d 16 1c e7 bd 9e 8b 74 bd 69 4d 9b bd
       0.06423758 -0.11284654 -0.05970346 -0.07583124
0003e0 09 4c ea bd 4e 4b bc bd f9 0b 02 be 12 23 f8 3d
       -0.11440284 -0.09194051 -0.1269988 0.12116064
0003f0 c2 61 60 bd b6 d7 b2 bb f0 b3 19 be d3 f5 4d bd
       -0.05478073 -0.0054578437 -0.15010047 -0.050283264

lstm.weight_hh_l0 f4 [200, 50]
000000 3e 5f db bc 79 2d 17 3e ca ed e6 bd be 6b ce 3d
       -0.026778813 0.1476344 -0.112758234 0.10079144
000010 28 c2 96 bd 3c b3 e1 3c 1f 7d cc 3d 51 71 af bd
       -0.07361251 0.027551286 0.099848025 -0.08566535
000020 94 9b 04 3d f6 a3 18 bd e7 03 a0 3d 8d 10 9f 3b
       0.032374933 -0.03726574 0.07813244 0.004854268
000030 7f dd 7f 3d 3e 53 8e 3d 65 b7 16 3e 0a fd f9 3d
       0.062467095 0.06949471 0.14718397 0.122064665
000040 ad 94 bf 3c a0 30 98 bc fc db a6 ba c7 e8 02 be
       0.023386324 -0.018577874 -0.0012730355 -0.1278411
000050 40 07 8f 3d 9b 00 05 be 6b ba 98 bd e3 ed 99 3d
       0.06983805 -0.12988512 -0.074574314 0.075160764
000060 2c 75 9d bd 30 08 72 3d cb 08 8d bc ea ed d5 3d
       -0.076883644 0.05908984 -0.017216107 0.10445769
000070 57 23 2a bc 5f 1f 9e 3d d2 85 4a 3e a8 09 9d bd
       -0.010384402 0.07720827 0.19777611 -0.076678574
000080 d8 73 dc bd 83 b7 d2 3d 53 af d4 3d db f8 9f bc
       -0.10764283 0.10288908 0.10385003 -0.019527843
000090 3e 7f a7 3d 67 b1 3f bd 3f 2b c3 3d e2 c3 a6 3d
       0.081785664 -0.046800043 0.09529733 0.081428304
0000a0 52 5e 7d bd 79 75 b6 3d 41 78 1b bd d5 b6 f1 bd
       -0.06185753 0.08909125 -0.03795648 -0.118024506
0000b0 43 cc 07 3b 65 9b 2b 3c 5a 79 a0 3d b3 b0 d8 3d
       0.0020721115 0.010474061 0.07835646 0.10580578
0000c0 9f 31 b9 3d 9c cf 74 3c 2e 8d b0 bd 7a 24 91 3d
       0.090426676 0.014942076 -0.08620678 0.070870355
0000d0 d2 85 65 3d 24 b9 04 be dd 07 95 bd 40 f2 07 3e
       0.056035824 -0.1296125 -0.072768904 0.13276005
0000e0 7b ac 26 bd 69 38 ac 3c df a6 8d 3c c3 9f ab bb
       -0.040691834 0.021022992 0.017291484 -0.005237551
0000f0 d4 92 05 3d f6 40 85 bd 00 6a dc bd 49 19 f4 bc
       0.03261073 -0.06506531 -0.107624054 -0.029797213
000100 b7 7f 9b 3d 90 20 9e bd 78 b5 ee 3d f2 27 bc 3c
       0.07592719 -0.077210546 0.11655706 0.022968266
000110 a8 21 cf 3d 32 8e 0c 3d 90 1e f8 3c e3 ca 00 be
       0.10113841 0.034315296 0.03028801 -0.12577395
000120 e6 2f 9d 3d f8 00 86 bd 3d 75 85 3b ec b0 fc bc
       0.076751515 -0.065431535 0.004072814 -0.030846082
000130 b8 ec e4 bd 27 6d 48 bd af d9 09 3e 2e fb 56 bd
       -0.11177963 -0.04893222 0.13461946 -0.052485637
000140 f8 b5 db bd ae f8 1a bd d9 d8 52 3d 40 71 9c 3d
       -0.10728067 -0.037834816 0.051476333 0.07638788
000150 1f 77 a1 bb 74 de 07 bd be 2a 05 be 70 79 ba 3d
       -0.0049275304 -0.033171132 -0.13004586 0.091051936
000160 aa e4 b6 3d d6 c1 f5 bd e7 5d 42 bd 51 a4 e9 bd
       0.08930333 -0.11999862 -0.047452834 -0.11408294
000170 70 1a e1 bc cf 3e cc 3b 06 ba d5 3d c5 3f 10 3d
       -0.027478427 0.0062330733 0.10435872 0.035217065
000180 cc 79 6d 3d 1d 75 ec 3d 60 8e bf bd 90 c7 1e bd
       0.057977483 0.11545775 -0.09353328 -0.038764536
000190 26 bb a5 3d 85 90 20 3e df 8c 69 3d cc 1b ce bd
       0.08092336 0.1568013 0.05701911 -0.100638956
0001a0 20 13 14 be 60 b8 d0 3d 9c f7 e2 bc c9 aa 98 bd
       -0.1446042 0.10191417 -0.02770596 -0.0745445
0001b0 4a ca 60 3d 53 e4 2d bc 05 c1 bb bd 8b 25 94 3d
       0.054880418 -0.010613519 -0.09167675 0.07233723
0001c0 a4 de 11 bc e2 96 d2 bd 18 df a0 bd ec e0 06 3d
       -0.008903179 -0.10282685 -0.07855052 0.032929346
0001d0 51 ea c9 3c 8c 12 bf 3d 1e 95 ad 3c bb d2 87 bc
       0.024647864 0.093297094 0.021189269 -0.016579976
0001e0 fc 23 c6 bd 97 42 02 bd a0 f6 89 3d be 56 0c 3d
       -0.09674832 -0.031801786 0.06736493 0.03426241
0001f0 d3 58 a1 3c 04 30 0a bc de 73 0c be c1 e9 b9 3d
       0.019695675 -0.008434299 -0.13716075 0.09077788
000200 39 06 80 bb 0b 10 ba 3c d4 66 e7 3d 37 79 00 3d
       -0.003906992 0.022712728 0.1129891 0.0313656
000210 ad 50 26 bd fd 36 67 3d 26 d8 63 bc e4 e8 c6 3d
       -0.040604282 0.056448925 -0.013906514 0.09712389
000220 bb 9f ea bc 23 ce 00 be 03 22 f7 3d d0 9c 8c 3d
       -0.028640619 -0.12578635 0.12067034 0.06865847
000230 e3 41 8d bc 9e c8 d8 bc 92 1f 52 bc e6 da fd 3d
       -0.017243331 -0.02646285 -0.01282491 0.12395267
000240 d8 ea 4c 3d fa 97 a3 3d 2c b4 ba bd e8 0b 04 3d
       0.050028652 0.079879716 -0.09116396 0.032237917
000250 2f 41 07 3e e6 fb 07 3e 7a 30 a8 bd fc 6e b7 bd
       0.1320846 0.13279685 -0.08212371 -0.089567155
000260 66 fd 79 3d 14 3f 90 bb 56 28 8e bb 12 09 39 bc
       0.061032675 -0.0044020507 -0.0043383045 -0.011293666
000270 0d 2f 8a bd dc 26 c9 bd 66 76 26 3e 2e 18 d3 bd
       -0.067472555 -0.09821865 0.16256103 -0.10307346
000280 fe 1d 17 bd 45 fb be bd 99 54 0b be 83 17 a2 bc
       -0.036893837 -0.093252696 -0.1360649 -0.019786602
000290 79 ed 92 3d 3f 84 09 3e 2a 9b 85 bd d4 6e 1a bd
       0.071742006 0.13429354 -0.06523736 -0.03770335
0002a0 e0 73 af bd 67 02 02 bd c3 9a c9 3c ff 15 eb bc
       -0.08567023 -0.031740572 0.024609929 -0.028697012
0002b0 ea 50 b1 bd fd 60 df bb a6 a9 a8 3d 1d c8 eb 3d
       -0.08658011 -0.006816982 0.08235483 0.11512778
0002c0 f4 d9 3e bd 20 93 be 3d ff 29 17 3e 14 9e b7 3b
       -0.046594575 0.093054056 0.14762114 0.005603561
0002d0 db 92 a5 3d 8d 05 5a 3d 25 80 07 bc a4 2f a1 bc
       0.08084651 0.05322795 -0.008270298 -0.019676037
0002e0 0c 77 ce 3b d2 61 df ba 00 f9 70 3a bf d8 0e 3e
       0.0063008126 -0.0017042703 0.00091923773 0.1394987
0002f0 55 9e 77 3d f1 14 d7 3d ad 30 b6 bc ce 4f 9b 3d
       0.06045373 0.10502041 -0.022240007 0.07583581
000300 3b 34 77 bd d1 53 08 3c ad f0 b3 bd d6 53 e3 3c
       -0.060352545 0.008320765 -0.0878614 0.027749937
000310 eb 62 00 3d f6 5e 0b be 49 a4 02 3d f7 96 d4 bd
       0.031344336 -0.13610443 0.031894956 -0.10380357
000320 eb f3 e9 bd 4b 32 16 3e f7 e2 bb bc 71 f3 b3 bd
       -0.11423477 0.14667623 -0.022935374 -0.08786667
000330 e8 c3 96 3d 62 94 2c 3d f8 46 ac bc 78 f0 5a 3d
       0.07361585 0.042133696 -0.021029934 0.053451985
000340 3d 4b 57 3d cd 68 26 3e e2 c1 13 3d 3c 84 1c 3e
       0.052561987 0.16250916 0.036073573 0.15284818
000350 cf 6c a9 3d c6 76 7b 3d 1d 3b 01 bd 54 a7 c6 bd
       0.08272707 0.061392568 -0.031550515 -0.09699884
000360 ba ee 94 bd 1e d5 03 be 14 8a ef 3d c4 b1 4e 3b
       -0.07272096 -0.12874267 0.11696258 0.0031539062
000370 76 17 c1 3c 04 c4 7b bd bb 33 1b 3e f0 24 cb bc
       0.023570757 -0.061466232 0.15156452 -0.024797887
000380 85 1d 1c 3e cb ee 1b bd 70 1f e1 3d 99 47 16 3d
       0.15245636 -0.038069528 0.10992324 0.036689375
000390 d6 97 9c 3d 0f 6a 05 be df 7a 31 3e ed 2f 03 be
       0.07646148 -0.1302874 0.17332028 -0.12811251
0003a0 a4 b2 fd 3d e0 8e de bc 07 e9 77 3b 81 a2 10 be
       0.123875886 -0.027167737 0.0037828104 -0.1412449
0003b0 7c 4f 08 bc cf 27 f9 bd 5a d5 65 bc ed 9e 00 3e
       -0.008319732 -0.12165796 -0.014027918 0.12560625
0003c0 79 26 00 bd ff b2 c0 3d 5d 0f fa bd f2 5e c6 3c
       -0.03128669 0.09409141 -0.122099616 0.024215195
0003d0 0d c9 e1 bd 37 8a 40 bd 40 62 7e 3d 2f ee 13 3d
       -0.110246755 -0.047006812 0.062105417 0.03611582
0003e0 ca c7 a4 3c 78 ec d9 bd 3d 7f 16 bd 4c 1c d8 bd
       0.020114798 -0.10640806 -0.036742438 -0.10552272
0003f0 cd e9 d4 bd a4 58 dd 3d ba ab 45 bd 4e 4c d3 3d
       -0.103961565 0.108079225 -0.048259474 0.10317288

lstm.bias_ih_l0 f4 [200]
000000 7b 8d 82 bd 02 15 1f bd 06 07 63 3d e9 8a af bb
       -0.063746415 -0.038838394 0.05542662 -0.0053571356
000010 56 f4 1b 3d b1 e1 7d 3c 49 99 2d 3d d7 ff 1c 3e
       0.038074814 0.015495704 0.042382512 0.1533197
000020 c6 4e 27 3e 92 cf 81 bd 54 62 10 3d 3a 7a 37 3d
       0.16338643 -0.06338419 0.035250023 0.0447943
000030 37 c2 68 bd 68 c5 6d bd 9d e2 e7 bd 63 50 c0 3d
       -0.056825843 -0.05804959 -0.1132252 0.093903325
000040 73 a3 2b be 99 d0 d7 3d 10 dc 85 bd 6f 01 3a bb
       -0.1676157 0.10537834 -0.06536114 -0.0028382202
000050 93 d7 6f 3d 9f 35 72 3c 9d 25 2d bc 44 0c 8d bd
       0.058555197 0.014783292 -0.01056805 -0.06887105
000060 c8 89 fb 3d 3f fe 88 bd c8 24 88 bc b4 7a bf bd
       0.12282139 -0.066891186 -0.016619101 -0.09349576
000070 e3 44 20 3d 2c 40 9f bd c1 47 a7 3d d5 59 09 3e
       0.039128195 -0.07775912 0.08167983 0.13413174
000080 ef 05 6d 3d 1c f6 ee 3d 2c 44 be bd 75 f0 c1 3d
       0.057866987 0.116680354 -0.092903465 0.09469692
000090 20 7e f4 3c f2 1a cf bd 68 19 7f bd 74 c0 07 bd
       0.029845297 -0.10112561 -0.06228009 -0.033142522
0000a0 7e 47 70 bc 6e 2d c0 3d 5b 35 0d 3d 1a 32 04 bd
       -0.014665483 0.09383665 0.034474712 -0.032274343
0000b0 c2 16 9c 3d 15 46 06 be c5 1f 17 bd d9 a2 8a 3d
       0.07621528 -0.13112672 -0.036895532 0.06769342
0000c0 5d 1f 36 bd 5d 23 ea bd 48 95 ac 3d b7 fa 72 bd
       -0.044463504 -0.11432526 0.08426911 -0.05932113
0000d0 14 d8 24 3e 16 cd 9f 3c 2d e6 02 3e 18 08 30 bd
       0.16098052 0.019506972 0.12783118 -0.04297647
0000e0 47 a0 fb 3a 22 f5 b0 3c f7 d7 7b bd 55 84 d5 bd
       0.0019197547 0.021601263 -0.061485257 -0.10425631
0000f0 8a d9 d8 bc 8c 71 10 3d 39 e6 78 3d 25 4b 81 3d
       -0.026470918 0.035264537 0.060766432 0.06313161
000100 42 60 95 3d 0a ac 4e bd 02 63 8e bc b7 81 e6 3d
       0.0729375 -0.050457038 -0.017381195 0.1125521
000110 ec 2e 38 bd f6 30 82 bc 81 36 fd bd 48 a7 6a 3d
       -0.044966623 -0.015892487 -0.123639114 0.057288438
000120 5c 9a be 3d 57 8c ac 3d fb 2b b0 bd 0a 1a 62 bc
       0.093067855 0.08425205 -0.086021386 -0.0138001535
000130 fd a8 ac bc bb 48 6a bd 69 e8 81 bd 39 a7 ed 3d
       -0.021076674 -0.057198267 -0.06343157 0.11604161
000140 cc ad 99 bd e1 46 06 3e 89 f0 a5 bd 2f b1 90 bd
       -0.07503852 0.13112976 -0.08102519 -0.07065045
000150 17 a9 a3 bd ad fe b6 3d ce dd 5e 3d cb b8 0b 3d
       -0.07991236 0.08935294 0.05441075 0.03411178
000160 8f 64 bf bd fb f1 65 3d 3d 45 a5 3d 96 64 0f 3e
       -0.09345352 0.056138974 0.08069847 0.14003214
000170 24 60 7a 3b 37 d0 0a bd 75 e7 e6 bd f2 71 8a bd
       0.0038204277 -0.033889975 -0.11274616 -0.067600146
000180 00 d0 03 3d 5f f1 0e bd d1 f3 0d be 20 55 94 bb
       0.032180786 -0.03489816 -0.1386254 -0.0045267493
000190 54 42 8b 3c 39 ce ad 3d cc 5c 93 bd ce e1 69 bd
       0.016999401 0.084865995 -0.07195434 -0.05710011
0001a0 6f 32 40 bd d7 db 0a 3d 94 98 09 be ce 21 84 bd
       -0.046923097 0.033901062 -0.1343711 -0.0645176
0001b0 02 0f f6 bb 2d cf 83 3c 68 03 1e bc 21 6b a7 3d
       -0.0075091133 0.01609 -0.009644367 0.0817473
0001c0 27 67 71 3d 7d 20 72 bd 0d 3d db 3d bc 70 05 be
       0.058936264 -0.059113014 0.10705004 -0.13031286
0001d0 48 fc a6 bd 96 bc e9 3d 53 6e 91 bd 76 14 ba 3d
       -0.081535876 0.11412923 -0.07101121 0.09085934
0001e0 1e 69 d9 3d 4b 75 ac 3d a7 3d c8 3d f7 b7 72 bd
       0.10615753 0.08420809 0.09777384 -0.059257474
0001f0 f1 f3 e2 bc 7f 7e 75 bd 6f e7 3b 3d 32 b1 c2 bb
       -0.027704211 -0.05993509 0.04587501 -0.0059415335
000200 08 d3 74 bd 5b 80 96 bd a0 bc db 3d d0 55 5b bd
       -0.059771568 -0.073487006 0.10729337 -0.053548634
000210 67 21 9b bd a6 3b f4 bc e7 6a d5 bd 81 38 18 bd
       -0.0757473 -0.029813599 -0.10420781 -0.03716326
000220 02 40 d4 bd f0 74 cb 3c 82 f7 87 bd 98 cd b3 bd
       -0.10363771 0.024836034 -0.06639005 -0.08779448
000230 b8 02 df bb d1 cf 6c 3d f8 b2 23 bd ca 7e 42 bd
       -0.006805744 0.057815377 -0.0399656 -0.047484197
000240 f0 cc 63 bd 20 93 bf bd 9c c2 0d bd ea 94 90 3d
       -0.055615366 -0.09354234 -0.034609422 0.07059653
000250 72 a0 06 be b7 2d b2 3d 1e 07 db bc 59 72 42 bc
       -0.13147143 0.08700126 -0.026736792 -0.011868083
000260 9b 3b af 3d c4 19 b8 bd 82 bc b5 3d 8c 31 8a 3d
       0.08556291 -0.089892894 0.08873846 0.067477316
000270 ae fd 10 be 4a 89 ee 3d 37 2e 13 bc 52 69 04 3e
       -0.14159271 0.116472796 -0.008983186 0.12930802
000280 56 49 ee 3d 96 55 16 3e 66 8d 00 3d 06 4a 9d bd
       0.116350815 0.14681086 0.031384848 -0.076801345
000290 e9 a5 e4 bd b6 9b 0d 3e 34 af ac bd 01 4a 59 bc
       -0.11164457 0.1382893 -0.08431855 -0.013262273
0002a0 c3 e2 8e 3d 93 29 9a 3d 17 e3 fb 3d c1 bc 80 3d
       0.06976845 0.07527461 0.12299173 0.06286002
0002b0 c4 65 52 3c 54 bb 9e 3c e4 ff 50 3e 49 ca 0e bd
       0.012841646 0.019376434 0.20410115 -0.034860883
0002c0 90 2d 13 be 09 20 fa 3d 4c 09 e8 3d 41 72 32 bd
       -0.1437285 0.122131415 0.11329898 -0.043565992
0002d0 75 ff 94 bd 84 c6 09 3e d8 3a fa 3d 1c 07 56 3d
       -0.07275287 0.13454634 0.12218255 0.052252874
0002e0 a8 d5 8b bc 65 bf eb b9 16 27 af bd 2c 98 35 bd
       -0.017069653 -0.00044965293 -0.08552377 -0.044334576
0002f0 3a e6 08 3e 86 40 b6 3d ea 13 f8 bb 8d e0 e2 bd
       0.13369074 0.088990256 -0.0075707333 -0.11077986
000300 ca 0c 58 bc 14 42 23 be 60 be 08 3e fd ea 83 3c
       -0.013186643 -0.15943176 0.13353872 0.016103262
000310 07 dc f8 bc 9a 42 a9 bd 58 ad b4 3d 7b 31 8a bd
       -0.030378355 -0.08264656 0.08822125 -0.06747719

lstm.bias_hh_l0 f4 [200]
000000 d0 40 5b 3d 65 5f d8 3c c2 76 46 bc 0f 69 cc bd
       0.053528607 0.026412675 -0.012113275 -0.09980976
000010 3e 42 88 3d 3e b1 e1 3b ff cb 33 3d 55 4f 2f 3e
       0.0665326 0.006887584 0.043895718 0.17120107
000020 7d be 27 bd 64 4c 70 bd ff 67 46 bd 92 42 1a bd
       -0.04095315 -0.0586666 -0.048439022 -0.037661143
000030 16 6e 1e 3e 8a be 28 bd c5 c4 ae bd 49 db 84 bd
       0.15471682 -0.041197337 -0.085336246 -0.06487138
000040 79 44 e9 bc c3 66 b9 bc ea ea 5c 3b 2e 0e 03 3e
       -0.028475033 -0.022632008 0.0033709356 0.12798378
000050 ca ad a7 bd 63 db 95 bd 32 35 d5 bc 0c 4a 1a be
       -0.081874445 -0.07317235 -0.026026342 -0.15067309
000060 69 50 71 3e 49 bb 87 bd 60 98 1b be 31 5a 9f 3d
       0.2356583 -0.06627519 -0.15194845 0.077808745
000070 df c9 b1 bd d5 e9 09 be bb 5b ce bd ed 17 7d 3d
       -0.08681082 -0.13468106 -0.1007609 0.061790396
000080 74 16 bb bb 09 99 ed 3d cd d3 1c 3c c5 ce 20 3e
       -0.0057094637 0.11601455 0.009571982 0.15703876
000090 10 ac 94 3d d0 36 1a be 35 d2 86 bd f7 a7 83 bd
       0.07259381 -0.15059972 -0.065830626 -0.06428521
0000a0 b5 a9 ed 3d 00 80 6f bd 80 23 17 3e db e2 be 3d
       0.11604635 -0.05847168 0.14759636 0.09320613
0000b0 2c 9c 86 bd ad 66 4d bd b7 01 4f bc 93 c7 03 be
       -0.06572756 -0.050146747 -0.012634686 -0.128691
0000c0 f8 46 63 3d 0b 1c 21 bd d1 3c a2 bd 48 e3 34 3d
       0.055487603 -0.039333384 -0.07921756 0.044162065
0000d0 2a dc 96 3d 81 41 fc bd 9a 4b 9b bd f4 31 83 bd
       0.07366212 -0.123171814 -0.07582779 -0.06406012
0000e0 09 aa 86 bd ad 49 0b 3e 38 5d 16 3d d9 27 e6 bd
       -0.065754004 0.13602324 0.036709994 -0.11238069
0000f0 19 cd 21 bd 21 97 b0 3d 92 6e 8f 3d 23 0e 98 3d
       -0.039502237 0.086225756 0.070035115 0.07424571
000100 ec e5 03 3e 1f 78 95 3c 54 35 3b bd ec e5 03 be
       0.12880677 0.018245755 -0.045705155 -0.12880677
000110 d1 ae b2 bd af cb 13 3d 36 90 e0 bd 8a fc c5 3d
       -0.0872475 0.03608292 -0.10965006 0.09667309
000120 f3 34 02 3e f3 c9 c1 bd 7a 38 a5 3c 32 46 df 3d
       0.12715511 -0.09462347 0.020168532 0.109020606
000130 1c 6f 82 bd 31 ff d3 3d 97 4c 40 bd 05 49 58 3d
       -0.06368849 0.10351408 -0.04694804 0.05280401
000140 cf cb 92 3d 6e 4b ff bd 35 34 7e bd 4d 2b 66 3c
       0.0716778 -0.12465559 -0.062061507 0.01404841
000150 d1 e4 d1 3d 21 d0 a7 3d 15 96 e3 bd cc 07 0b 3d
       0.102487214 0.08193994 -0.1111261 0.033942983
000160 b8 a1 ae bd ed 0e f9 3d 4c 84 13 3d 18 ae ef bd
       -0.08526939 0.1216105 0.03601484 -0.117031276
000170 d4 01 1f be fd 3a e9 3c 6b 6f 92 bd f6 16 64 3d
       -0.15528041 0.02847051 -0.071501575 0.05568596
000180 55 cc 58 bc 81 3c 23 bd 59 5a a4 bd 2d a6 21 be
       -0.01323231 -0.039852623 -0.08025045 -0.15786047
000190 15 18 0e 3e fc e5 31 3d 5a c0 8e 3d bb 6e 93 3d
       0.13876374 0.04343222 0.06970282 0.071988545
0001a0 86 82 00 3d 22 00 ea bc 4a 4b 11 3c d1 18 da bd
       0.031374477 -0.028564516 0.008868048 -0.106492646
0001b0 17 0d ee 3d 4d 41 d3 3d ff 5b 23 bd 08 50 64 3c
       0.116235904 0.103151895 -0.039882656 0.013935097
0001c0 22 5a 40 3d aa e1 b8 3d b9 53 83 bd 1c 8e 37 3d
       0.046960957 0.09027417 -0.06412453 0.04481326
0001d0 37 d7 88 bc e0 0a 5a bd f0 50 a8 bd 48 b3 f1 3d
       -0.016704185 -0.053233027 -0.082185626 0.11801773
0001e0 db c7 a0 b7 8c ae a3 3a aa 60 08 3d a7 7c 47 bd
       -1.9166551e-05 0.0012487932 0.03329531 -0.048702862
0001f0 48 88 e4 3d 82 3a b7 bd c3 5c 20 bc 03 e9 9a bc
       0.11158806 -0.08946706 -0.009787741 -0.018909937
000200 82 54 9c 3d 21 e1 07 3e 7d 08 92 3d cf e7 09 3e
       0.07633306 0.13269474 0.07130525 0.13467334
000210 3b c1 05 3e c1 ba c6 3a 2d 50 c7 bc 64 e9 31 3c
       0.13061993 0.0015161858 -0.024330223 0.010858867
000220 e7 44 ff bc 2b d4 bc bd 7e be f1 3d 2a fd 9a 3d
       -0.031160785 -0.09220155 0.118039116 0.075678185
000230 28 8b 95 bd 7d 86 89 bd 96 62 3c bd fa 8f 8e 3d
       -0.073019326 -0.06715105 -0.045992456 0.06961055
000240 a6 5d 83 3c aa a1 e9 3d bf 7c ef 3b 66 10 39 3d
       0.016035866 0.11407788 0.007308572 0.045181654
000250 21 22 d9 3d bf 33 c7 bc 0c 40 7c 3d 39 d9 85 bd
       0.10602213 -0.024316667 0.061584517 -0.065355726
000260 5b 23 5d bd 76 8d d2 bd 07 a0 9c 3d 16 71 2f 3d
       -0.053988796 -0.10280888 0.0764771 0.042832457
000270 c8 16 38 bc b0 ba fa 3d d2 f4 fa bc 84 1c 98 3d
       -0.0112359 0.12242639 -0.030634318 0.07427314
000280 7e ab 05 be 7f be e7 3c 75 dd e9 3d bf 84 fc 3d
       -0.130537 0.028289078 0.11419193 0.12330007
000290 6d d3 b3 bd c7 fb 81 bd 53 81 e0 bd bc 38 7e 3d
       -0.08780561 -0.06346851 -0.10962167 0.062065825
0002a0 a2 9c 92 3d e5 95 81 3c 8d ef c7 3d 66 bd 0b be
       0.071587816 0.015818546 0.097624876 -0.13646469
0002b0 dd c6 62 3d 56 db 9a 3d 37 f2 11 3e 07 a8 c9 3d
       0.055365432 0.07561366 0.14252554 0.09846502
0002c0 fd 2c 56 3d 8f d3 9a bd 7f 61 8f 3d e2 6c f4 bd
       0.052288998 -0.07559883 0.07001018 -0.1193483
0002d0 57 76 78 bc 58 87 ed 3d a2 99 9f bd 4b 5b ca bd
       -0.015164933 0.115980804 -0.07792975 -0.09880694
0002e0 7a 9e 5c bd e4 63 3e bd a7 a0 f5 3c 3b 80 ab 3d
       -0.053862073 -0.046481982 0.029983832 0.083740674
0002f0 f1 2a 9c bc 11 f7 d7 3c 1f c7 66 3e f4 a9 e9 bd
       -0.019063445 0.026362928 0.22536896 -0.11409369
000300 7b 2e 3c bc 4e 19 17 bd ea c0 b2 bd 0d 0e a4 bd
       -0.011485691 -0.036889367 -0.08728202 -0.080104925
000310 a3 60 c2 3d 0e c6 9c 3c ac 5b 06 be d1 dc 10 3d
       0.09491088 0.019137409 -0.13120908 0.035366837

fc.weight f4 [1, 50]
000000 89 2a 12 3e 37 34 f0 bd f7 1e 9d bd 8e 18 ef bd
       0.14274038 -0.11728709 -0.07671922 -0.11674605
000010 a4 7c 1d bd b6 6d cb bc 9d 2a 41 3d bc cd 90 3e
       -0.038448945 -0.024832588 0.04715978 0.28281963
000020 6a bd ed bd 95 79 eb bd 37 93 6f 3c 4f 57 74 3d
       -0.116083935 -0.11497799 0.014622501 0.059653576
000030 84 8d 12 3e c1 94 08 3e 02 09 81 3d 77 df 03 be
       0.14311796 0.13337995 0.06300546 -0.12878214
000040 ff 30 21 3d 8e 45 32 3e 48 fa 23 bc b3 62 98 3d
       0.039353367 0.17409346 -0.010008402 0.074407004
000050 e9 c3 22 3e ad 32 f0 3d 34 77 62 3d af b3 1e bd
       0.15895046 0.11728416 0.055289462 -0.03874558
000060 68 1d 31 be 6b ba c2 3d 82 c4 93 3d 5d 6b 9d 3c
       -0.17296374 0.09508213 0.07215215 0.019216234
000070 c9 aa 2a 3d 7e d0 ea bc 51 fb c1 bd e7 f3 26 3e
       0.04166678 -0.02866387 -0.09471763 0.16303979
000080 93 1f 2b 3d 81 c5 fb 3b 1b 63 db 3d 69 67 de bd
       0.04177816 0.0076834564 0.10712262 -0.10859568
000090 a7 eb db bd 49 bf d9 3d 05 00 84 3d fa a3 ca bd
       -0.107383065 0.10632188 0.06445316 -0.09894557
0000a0 4f 1f 57 3e 27 d1 dc 3d 41 f2 d5 3d 10 2f d4 bd
       0.21008037 0.1078208 0.10446597 -0.10360539
0000b0 80 6c db 3d 26 82 d7 bc 65 ac 08 be 1a 27 fd bd
       0.10714054 -0.026307177 -0.13347013 -0.12360974
0000c0 18 54 80 bc 4b 9f 97 3d
       -0.015665099 0.074034296
