Drift_detection/lstm_model.pth (torch, 51494 bytes, 5 tensors)

lstm.weight_ih_l0 f4 [200, 9]
00000000: 6f38 ba3d f555 9b3d 5875 2a3e ebf3 ac3c
00000010: 1d3c c93d 485d b1bd 75e6 943a 6cfe f03d
00000020: 3b18 0f3b 7aab 263e d2e6 073e 4c03 0d3d
00000030: aab1 05bd edc8 a7bd ca6f fe3d a41c 213c
00000040: dc46 de3d 8af6 84bd 0c80 46bc 816d 04be
00000050: 3070 573c b772 d63d b392 023d 1ea8 10be
00000060: c820 0dbe 822c 4e3c 2fa0 97bb 77f3 863d
00000070: 290b 94bc 2416 2a3d 6add 45bc 0e00 813d
00000080: 1409 ddbd 2c88 6c3d db7f df3d 8f4e 9fbb
00000090: 9207 1e3d 4fd2 3d3d b3a3 cb3d dfac b6bd
000000a0: 43d9 9cbc a0a4 3cbd 7b32 853d a5eb 44bd
000000b0: ce1b 103d 2eb6 7a3d 4a22 5c3c b905 813d
000000c0: 70e7 2fbd 3aca 013e d82c f1bd 33ad df3d
000000d0: dff8 123e 0c04 b03d 47ab 1b3d df55 b93d
000000e0: 7e6b 013e ea35 023e 1fcc c23d a03a 29bc
000000f0: b32a 98bd d88f e7bd 3169 4cbd e7ca fc3a
00000100: 3448 c9bc 558c ee3d 0c8b 97bd 7567 293c
00000110: a1c2 db3d b030 77bb 2c4a d53d 395b a93d
00000120: ddd5 a33d a6cb 7bbd ce20 18bd e87b cbbd
00000130: 75eb 05bd 6771 f33b 5aaf e5bd 3d28 f8bd
00000140: c87a 193e 0921 cfbb d616 9e3d b8de 0cbe
00000150: 4b89 a53d c696 c93d 0d98 f03d 2280 c9bd
00000160: f9fd 9fbd 60a3 ae3d c60f 98bd 2c3d 74bd
00000170: af0f da3d db49 babd bf84 023e c262 3d3c
00000180: cfbc 04be 5208 a63c e885 dbbd 8bd1 f0bd
00000190: 6837 eabd 0143 19be f8f6 1e3d 88f7 e13d
000001a0: 8226 733c ca14 af3d 92a4 833d 31bf 16bd
000001b0: 9358 d6bd b8e2 f3bd 1a41 9f3d 23a0 4ebd
000001c0: ce0e da3d 7e37 17be ef9e 19be b7c8 a83d
000001d0: fd42 4b3d f127 fc3c 54de e73c 9159 b9bc
000001e0: 6468 a33a 8029 bcbd 8d5d f1bd 9536 31bd
000001f0: a5db 013e 91e5 eabd ca7a fd3d 49d1 80bd
00000200: 2eb1 79bc 73d7 cbbc 3b61 0abd f511 22be
00000210: 7fdb c4bd e466 723c 1cef f33d 5f31 303e
00000220: d93e babd a205 143d 473d 63bd 372f e3bc
00000230: 67b5 9ebb 6bbe 3abd 5e7b 333e 9069 183e
00000240: e515 71bd 6600 bcbd b52a 643d bfd8 813d
00000250: 0d31 e03c 671f 373d ed68 00be 4b51 713c
00000260: 41ad 233c 4e7f 0f3e 10b6 a2bd 4022 933d
00000270: b399 3fbd bf88 033e 62d2 f5bd 0f8c 02be
00000280: f5af a63d faee 2d3c 103b c13d 2796 a7bd
00000290: 3376 243e be08 3d3d 72aa aebd 100b 42bd
000002a0: 100e db3c 37e3 103e 65a8 babd 0571 9f3d
000002b0: 6bd7 c5bb d306 773d 88d2 91bc 2c6f 3dbd
000002c0: 0718 33bd e1da 4d3d 178c a5bd e61b 153e
000002d0: 4cd4 ca3c 2519 853d 0142 2a3c e3ec 29bd
000002e0: 1265 0b3d e458 7abd ce97 4cbd 8d94 17bd
000002f0: aae5 c53c 79df f43d 2a90 3f3d ee75 9cbc
00000300: 8e14 b63d c897 ac3d e0f5 cc3d 26ec ff3d
00000310: 5af6 a8bc 0594 00be 990a e23c 96a1 903d
00000320: b2db af3d 9f7c 5e3d 789a 07be 40f5 183d
00000330: 275a fc3d 83b9 c23d fdf4 efbd 4111 fa3d
00000340: d2e9 ec3c f944 143e d116 513d d50d 8abd
00000350: 8a4f 083e e332 793c f64a 1ebd d631 bdbd
00000360: a00f a73c 74b3 b43c d7a1 2e3e 86b9 8b3d
00000370: b623 223e bc5d 6a3d 5470 353d 2cb6 9cbd
00000380: 9ce1 ecbd b19e 0e3d b84f 3fbd da98 e8bc
00000390: a447 c83d 6262 4bbc be42 25be bc0c d0bd
000003a0: fd55 da3d 1534 17be 86a1 e03c 4e58 973d
000003b0: 2408 313d ae3e f03d 9734 273e 7648 873d
000003c0: 8ffd c0bd 1083 aebc 3426 f73c aa6d 44bc
000003d0: 445e acbd 9783 953c 7858 70bd a169 993d
000003e0: c25e b7bb fdec a83b 274b 02be c0c5 0bbd
000003f0: f4d6 79bd 461a c83d c186 d83d 6d47 4f3a
0.09092795 0.075847544 0.16646326 0.021112403 0.09825919 -0.0866037 0.0011360185 0.11767277
0.002183451 0.1627635 0.13271645 0.034426972 -0.032640137 -0.081926204 0.12423666 0.009833489
0.10853359 -0.06492336 -0.01211549 -0.12932397 0.013149306 0.10471099 0.031878185 -0.14126632
-0.13782036 0.012583854 -0.0046272497 0.06589406 -0.018071728 0.04152502 -0.012076715 0.062988386
-0.10792747 0.05774705 0.10913058 -0.00486166 0.03858144 0.046343144 0.099433325 -0.08919691
-0.019146567 -0.046055436 0.06503769 -0.04807629 0.035182767 0.061208896 0.0134359095 0.0629992
-0.042945325 0.126748 -0.117761314 0.10921707 0.1435275 0.08594522 0.03800514 0.09049582
0.12638661 0.12715879 0.09511589 -0.010328919 -0.07430019 -0.11306733 -0.049905006 0.0019286544
-0.024570562 0.1164786 -0.07399568 0.0103396075 0.10730482 -0.003771823 0.10414538 0.082693525
0.079997756 -0.06147351 -0.03714066 -0.099357426 -0.032695252 0.00742929 -0.11215086 -0.1211705
0.14988244 -0.006321077 0.07719199 -0.13756835 0.08082827 0.09843211 0.117477514 -0.098388925
-0.07812113 0.08527255 -0.074248835 -0.05962865 0.10647523 -0.09096118 0.12745951 0.01155919
-0.1296265 0.02026764 -0.107189 -0.11758717 -0.11436349 -0.14966966 0.038809747 0.11033541
0.014840724 0.08548887 0.06427874 -0.036803428 -0.10466113 -0.119084775 0.07776089 -0.050445687
0.10647355 -0.14767262 -0.15002035 0.08241408 0.049624432 0.030780764 0.028304256 -0.022625716
0.0012467024 -0.09187603 -0.117854215 -0.043264944 0.12681444 -0.114695676 0.12376936 -0.06289918
-0.015239997 -0.024883008 -0.033784132 -0.15827163 -0.09612178 0.014795039 0.11910841 0.17206334
-0.090940185 0.036138184 -0.05547836 -0.027732475 -0.004843402 -0.045591753 0.1752753 0.14884019
-0.05885877 -0.091797635 0.05570479 0.06340169 0.02736714 0.044707682 -0.12540026 0.014728854
0.009990037 0.14013407 -0.07944882 0.07184267 -0.04677744 0.12845133 -0.12003018 -0.1274874
0.0813903 0.0106160585 0.094350934 -0.08182936 0.16060714 0.046150915 -0.085286036 -0.04737383
0.026740104 0.14149176 -0.0911415 0.07785229 -0.0060376427 0.060309242 -0.017800584 -0.0462486
-0.043724086 0.050257567 -0.08083361 0.14561424 0.024759434 0.064989366 0.010391713 -0.04148568
0.034031935 -0.06111993 -0.04994946 -0.037006903 0.024157364 0.119566865 0.046768345 -0.019099202
0.08890639 0.084273875 0.100078344 0.124962136 -0.020625282 -0.12556465 0.027592944 0.0706207
0.085868254 0.054318067 -0.13242519 0.037343264 0.12321883 0.0950804 -0.1171665 0.12210322
0.028920088 0.14479436 0.05104715 -0.067409195 0.13311592 0.015209886 -0.038645707 -0.09238021
0.020393193 0.022058226 0.17053925 0.06822495 0.15833935 0.0572183 0.044296578 -0.07651934
-0.11566469 0.03481931 -0.046706885 -0.028393198 0.09779289 -0.012413593 -0.16138741 -0.10158679
0.10660932 -0.14765961 0.02742077 0.0738989 0.043220654 0.11730705 0.16328655 0.06605618
-0.094233625 -0.02130273 0.030169584 -0.011989037 -0.08416417 0.018251223 -0.05867812 0.0749085
-0.005596013 0.0051552043 -0.12723981 -0.034124136 -0.06099601 0.09770636 0.10572577 0.00079070666

lstm.weight_hh_l0 f4 [200, 50]
00000000: 32cd 50bd d3db 103e 960c 29bd dcff c2bd
00000010: b5f8 413b 3a41 b63d 8516 1f3c e1e0 213d
00000020: c5b6 d73d b3e9 afbd 0471 e73d a764 3bbd
00000030: 8541 ee3d 781e d13d 2770 a03d e60c 18be
00000040: 0302 123e 27ca e53d 4072 4dbd 9d99 debd
00000050: 3889 c23b 251b 0a3e d249 f3bb 2d49 f03d
00000060: 3585 d93d d107 043d 35c4 0c3e f5e4 f7bd
00000070: 9d26 8b3c ee43 983c 82c4 cfbd 463d 773d
00000080: 7a00 063d 2f05 32bd 2af2 edbc e461 f7bd
00000090: d1b3 57bd 70c0 94bd a7a3 083e 7d91 87bd
000000a0: 877a d9bd 88e5 cbbd a9a4 d43d c141 073e
000000b0: b790 e3bd 0bf3 9dbc 23d7 37bd 02a3 2a3d
000000c0: 9ab2 b1bb 30ba 8d3d 0e3b 0dbd e14b 2a3e
000000d0: b5df 27bd 69cf 853d 2744 fa3b 02b5 92bd
000000e0: bb4c ca3d 2686 20be afb3 123e 0644 333d
000000f0: c1b8 b53d 531a ff3d 1e13 273e 4f45 09bd
00000100: eaf0 933a b27a 03be 3b2a a6bd 5452 1bbe
00000110: 3123 933b 1ab9 8e3d 4926 093e 4cd4 90bd
00000120: fd93 6f3d 431c 99bd 73f0 82bb a81d 12bd
00000130: 3150 ab3c 3186 ad3d 99cb 1e3d 405d 31be
00000140: bb49 e7bd ae1a 8c3d c273 43bd c235 723d
00000150: 2763 5dbd 8b6c 373e ea33 b3bd 91f7 4cbd
00000160: fd3f 083e 9208 e8bd f6dd 23be 7e2e 0a3e
00000170: 4b6a 1dbe 3ce4 0cbe 7eb2 16be 8d17 0e3e
00000180: e529 fd3c ac8a 5ebc 751c 053e ea44 19be
00000190: 8744 c73d 4211 dabd 68c9 a93c 367b 2a3e
000001a0: 1a76 013e 4056 aa3d b36f fcbd 3523 6ebc
000001b0: 568a 0ebe 8e29 a9bd 5e20 a3bd 3954 31bc
000001c0: 7fac f1bd 5158 3bbc b7b9 f83d 1527 893d
000001d0: ba66 aabc a3a2 e03c 97ce e4bd 1a99 f93d
000001e0: 99ff ce3d 502a 07bc c447 8ebd 4e15 b93d
000001f0: b3dc 893d 06db a0bd 4d66 7cbc 04e1 a2bd
00000200: 05a0 de3c 1e5e 86bc f636 9dbd 64c9 eabd
00000210: e9a6 cdbd cc31 c2bc 750e 623d 3345 19be
00000220: 7355 fc3d 4170 803d 2cdd e4bd 3ad7 07bb
00000230: 135b d63d 1a1d 7abd 91f9 bfbd 7e8e 0d3e
00000240: 371b 113e c337 e2bd 8aff 233e 0b48 bcbd
00000250: cad5 933d 4ff4 0f3e 0c81 cc3d af1c e4bc
00000260: 09b1 34bd 2769 fb3d 3a10 aa3d 86ee 713d
00000270: 297d 84bd 99a2 0cbe 6d21 8abd 0668 6d3d
00000280: a201 c0bd 5d9e 0abe b4a0 243d 6c60 5f3d
00000290: 43fa 213e c791 e9bb 6bc9 e23d b882 2f3d
000002a0: 383f 91bd 1dad c0bd 450f 8fbd 614a ca3c
000002b0: 60f3 9abd e235 c1bb 3bf7 5a3d ab4f c6bd
000002c0: e05c e93d 745b 5e3d 9652 f0bd f523 0f3d
000002d0: 31ba 843a ea42 00be d436 7a3a 5073 03bd
000002e0: 3792 78bd 57d2 d7bd 0b8d 253d 6a54 abbd
000002f0: 6b03 19bc 1353 99bd b625 893d d67d 74bd
00000300: 4b21 e53d 7b38 cebb 7592 8ebb bbed 87bd
00000310: a380 d03d d21f 153e 0dc7 0e3e 10b6 abbd
00000320: a4c7 06be 8fa1 10be 8eb3 143e 289a d4bd
00000330: 4670 9e3d e4c1 f83d 46d4 36bc b088 9b3d
00000340: aef6 a3bb 55a1 e6bc 4706 9b3c ee91 203d
00000350: 1a7d c23d 38f3 d3bb 4733 8dbd c488 8e3d
00000360: 96b1 00bc d702 6fbd 2f0a 11be 45cb 3c3d
00000370: 90e6 b4bd 4b65 73bd 4d16 fcbc 0685 b63d
00000380: ea03 31bd 9761 873d 0d72 ed3d 434e 47bd
00000390: a139 afbd 66c0 0abd 12d9 cd3c 0286 77bd
000003a0: 49ca 72bd 4e70 c7bd 8090 fd3d 269d c13c
000003b0: cf68 c63d 2984 7c3d 052d d13d fc88 5c3d
000003c0: 8977 16be 8154 21bc 0cdc be3d eae2 043e
000003d0: a990 44bd 3c4c 09be 82f0 53bd 0397 b3bc
000003e0: b6fd e8bd bc44 b23c f877 5b3d 976d 4d3d
000003f0: 69dd 7cbd 4e06 18be f9ec 9f3d 291d 3a3b
-0.05097694 0.14146356 -0.04127177 -0.095214576 0.0029597704 0.0889916 0.009709959 0.0395211
0.105329074 -0.085894965 0.11300853 -0.045750286 0.116335906 0.102108896 0.07833891 -0.1484867
0.1425858 0.11220198 -0.050157785 -0.10869143 0.005936768 0.13486917 -0.0074245716 0.11732707
0.1062111 0.032234017 0.13746722 -0.12104217 0.016986186 0.018587079 -0.10144903 0.06036117
0.0327153 -0.043461975 -0.029046137 -0.12079218 -0.05266172 -0.07263267 0.13343678 -0.066195466
-0.10619073 -0.09955889 0.10382969 0.13208677 -0.111115865 -0.019280931 -0.044882905 0.041659363
-0.0054229023 0.06920278 -0.034480147 0.16630508 -0.040984828 0.06533701 0.007637519 -0.07163431
0.098779164 -0.15676174 0.14326356 0.043766044 0.0887313 0.12456193 0.16315886 -0.033513363
0.0011287008 -0.12839773 -0.081135236 -0.15168124 0.004490279 0.06968899 0.13393511 -0.070717424
0.058490742 -0.074760936 -0.003995949 -0.035672814 0.020912262 0.084728606 0.038768385 -0.17320728
-0.1129336 0.06841026 -0.047717817 0.0591333 -0.054049637 0.179125 -0.08750136 -0.050040785
0.1330566 -0.1132976 -0.1600264 0.13494298 -0.15372579 -0.1375894 -0.14716527 0.13876171
0.030903766 -0.013582867 0.12999137 -0.14967695 0.097298674 -0.10647823 0.02072592 0.16648564
0.12642708 0.08317232 -0.123259924 -0.014534761 -0.13919958 -0.08259879 -0.07965158 -0.010823303
-0.11800479 -0.0114346305 0.12144797 0.066969074 -0.020800937 0.027421301 -0.111722164 0.12187405
0.10107345 -0.008249834 -0.06947282 0.09037267 0.06731548 -0.078542754 -0.01540525 -0.079530746
0.027175913 -0.0164023 -0.076764986 -0.114641935 -0.10041601 -0.023705386 0.05518957 -0.14967804
0.12320986 0.06271411 -0.11174998 -0.002072765 0.1046659 -0.06106291 -0.09373773 0.13823888
0.14170538 -0.11045792 0.16015449 -0.091934286 0.072185114 0.1405804 0.09985551 -0.027845709
-0.044114146 0.122759156 0.08303876 0.059065364 -0.06469185 -0.13733901 -0.06744657 0.057960533
-0.093753114 -0.13536973 0.04019232 0.054535314 0.15818124 -0.0071279737 0.11073574 0.042849272
-0.07092136 -0.09408019 -0.06985334 0.02469367 -0.07565951 -0.005896316 0.053458434 -0.09683164
0.113946676 0.054286435 -0.11734502 0.0349464 0.001012629 -0.12525526 0.0009544913 -0.032092392
-0.060686316 -0.10538166 0.040417712 -0.0836571 -0.009339194 -0.07486548 0.06696646 -0.05969032
0.11187991 -0.006293354 -0.004350955 -0.0663714 0.101807855 0.1456292 0.1394312 -0.08384335
-0.13162094 -0.1412413 0.1452162 -0.103809655 0.07736258 0.12146357 -0.011159008 0.075944304
-0.0050037717 -0.028153101 0.018923892 0.03920167 0.094965175 -0.006468203 -0.06894546 0.0695968
-0.00785484 -0.058352318 -0.14164041 0.04609229 -0.08833039 -0.059422772 -0.030772353 0.08912091
-0.043216623 0.06610411 0.11594019 -0.04865862 -0.08555914 -0.03387489 0.025127921 -0.060430534
-0.059274945 -0.09738217 0.12381077 0.023634505 0.096879594 0.061649475 0.10213665 0.053841576
-0.14694037 -0.009846807 0.09319314 0.12977186 -0.04798952 -0.13407987 -0.051743038 -0.021922594
-0.113765165 0.02176129 0.053581208 0.05015334 -0.06173459 -0.14846155 0.07808871 0.0028398728

lstm.bias_ih_l0 f4 [200]
00000000: 4254 ffbd 0f05 a4bd beb3 9c3c 2f82 913d
00000010: 20e3 423d f2db e0bd 3f0b aa3d 09d5 97bb
00000020: a6f2 0c3e 5753 e43d e7a6 fcbd ee10 47bd
00000030: d6a6 f93c 6103 9a3d 4ae9 5e3d 0059 bdbc
00000040: 1092 ea3d e957 66bc e5ad 333d dd25 8abd
00000050: b3c1 e73d 0736 1d3d 0edf 783b 64af f0bd
00000060: a00c a4bd b335 c23d a585 c33d e480 5f3d
00000070: 6ad3 0cbc a5a4 993b ddcf 52bd d67d 76bd
00000080: 31a9 4abd 13ed c03d d0bb febc 268d 97bd
00000090: 797f 5c3d b948 e9bd 8a69 35bc 4bb7 393e
000000a0: 1915 a7bd f880 c93c 9110 683d c9f7 023d
000000b0: e001 6b3d 13f4 8dbd ab00 00be 6c7b a73c
000000c0: 9c45 41bb d417 6cbd caff 543d afcc e23d
000000d0: a49e c2bb 69c5 f3b9 e8cb 5a3d 576d 60bc
000000e0: b5cb 93bd 9beb 19be 1329 eabd 552a e63c
000000f0: 0022 03be d698 86bd c4bb a7bd fbe9 98bd
00000100: 32b6 1cbe 4535 b7bc 49d7 97bd 37c2 483c
00000110: 0812 b83d 7f38 fdbd bd37 b7bd 02af 1bbc
00000120: b34e 943c e8cd d3bd c558 58bc c883 71bd
00000130: 3cb8 5b3b 6da1 13bc 96d6 043e 15f8 50bd
00000140: 95bd eabd c282 fc3d 6229 13be e174 bd3d
00000150: e36a c2bd 3229 ab3d b0c5 c0bd 566d 873d
00000160: 8b70 b6bc 537b f03c 082d dabb b50e eabd
00000170: ac8b debd b99f 48bc 007e 1d3c 19d8 82bd
00000180: 0b09 2bbd be3a 20bd d56a 79bd 6c70 513d
00000190: 6b12 1c3e 562a 04be 77c8 263d 2346 0abe
000001a0: 5a1c 7cbd 7ff9 ccbb 0ca2 aabd d3a7 febd
000001b0: ba5f b4bd 06ab afba e6d6 683d 7a96 da3d
000001c0: 5b45 783d be9a a13d d9bd 833c 605f 0ebb
000001d0: 67b1 8fbd 3534 c8bd aa16 ecbd 8a87 0f3d
000001e0: 5980 d63d 4775 c53d 5a9b 663d 060f 06be
000001f0: 2d00 e03d 45f2 e9bd 1642 623c 3c7f 8ebd
00000200: 2840 d33d 4fc1 03be 8828 433c c5f4 043e
00000210: a76e e53c cab1 e33d 656c 33bd 131a d6bd
00000220: 8020 7fbd 81fd bebd 226d 193e 3597 e63c
00000230: a9ee 5a3d cbcd 31bd c95e c2bd be7d f7bb
00000240: 66c3 043e 2d43 ea3d 9c89 81bd c2c8 933d
00000250: 6e1d f43b 1277 e9bd 3eb3 c33d c056 f23d
00000260: cfa0 273d c929 92bd 09f6 923d c976 183e
00000270: 612d 90bd 7100 963d a918 243d 374c bd3d
00000280: 6c65 a7bc bd5d d53d 0d22 c13d 8db0 603d
00000290: 2180 be3d 7efc ad3d fef9 703d 90e5 d93b
000002a0: c04d 423d 4541 933d 3a01 0dbc bac4 893d
000002b0: 3608 afbd 92a5 e23d 8f4e 81bd 24fe 66bd
000002c0: 08cb d0bd 1af7 003e 59cf 3b3d d0b8 debc
000002d0: 09c4 99bd a03a a43d c54a 24bb 07b5 ce3d
000002e0: 7ffc a93d 9c72 f2bd d75c 5c3b 80ac b73d
000002f0: 7c39 cbbd 5554 c23d 43ad c93d 425f 14be
00000300: 77a5 ae3c bf24 7ebd ac2e bcbd 1e2d c6bb
00000310: 36ba cabc 02a1 00be d05e a8bd 972e f93d
-0.12467243 -0.08008777 0.019128677 0.07104909 0.047579885 -0.10979451 0.08302926 -0.00463355
0.13764438 0.11148708 -0.123365216 -0.04860013 0.030475061 0.07520176 0.0544217 -0.023113728
0.114536405 -0.014059045 0.04386701 -0.06745503 0.11316242 0.038381603 0.0037974748 -0.11752203
-0.080102205 0.094828986 0.09546975 0.05456628 -0.008595327 0.0046888166 -0.051467765 -0.0601786
-0.04947776 0.09420218 -0.031095415 -0.07399969 0.053832505 -0.11390824 -0.011072526 0.18136327
-0.08158321 0.02459763 0.056656424 0.031974588 0.057374835 -0.06931319 -0.12500255 0.020444594
-0.0029490953 -0.05763991 0.052001752 0.110741965 -0.0059393216 -0.00046495654 0.053417116 -0.013697944
-0.072165884 -0.15031283 -0.114336155 0.028096357 -0.12805939 -0.0657212 -0.0819011 -0.07466503
-0.15303877 -0.022364268 -0.07414109 0.012253336 0.08987814 -0.123642914 -0.08946178 -0.009502174
0.018103933 -0.10342008 -0.013204758 -0.058963567 0.003352656 -0.009010655 0.12972483 -0.05101784
-0.11461941 0.123296276 -0.14371255 0.092508085 -0.09493043 0.08357467 -0.09412706 0.06612651
-0.022270462 0.02935568 -0.0066582 -0.114285864 -0.10866484 -0.012245112 0.00961256 -0.063888736
-0.04175667 -0.03911852 -0.0608929 0.051132604 0.15241401 -0.12906775 0.040718522 -0.13503318
-0.061550476 -0.006255328 -0.08331689 -0.12434354 -0.08807321 -0.0013402409 0.056845568 0.106732324
0.060613018 0.07890843 0.016081737 -0.0021724328 -0.07016259 -0.09775583 -0.1152776 0.03504137
0.10473699 0.096415095 0.0563005 -0.13091668 0.109375335 -0.11423162 0.013809701 -0.06957862
0.10314971 -0.1286671 0.011911519 0.12983997 0.028006865 0.11117895 -0.043804545 -0.10454192
-0.062286854 -0.09325696 0.14983037 0.028148273 0.05345026 -0.04340915 -0.09490735 -0.0075528314
0.12965164 0.11438594 -0.06325075 0.07216026 0.0074497974 -0.11399664 0.09555672 0.118329525
0.040924843 -0.07136876 0.07175834 0.14889063 -0.07039905 0.07324303 0.04006258 0.092430525
-0.020434104 0.1041827 0.09430323 0.054855872 0.093017824 0.08495425 0.05883216 0.0066496804
0.04743743 0.071901836 -0.0086062495 0.06726976 -0.08546488 0.11066736 -0.06313812 -0.05639471
-0.10194975 0.12594262 0.04585204 -0.027187735 -0.07508094 0.08018994 -0.002506898 0.10093122
0.08300113 -0.11838266 0.0033624673 0.08968449 -0.09923074 0.09488741 0.098475 -0.14489463
0.021319134 -0.062046763 -0.091885895 -0.006047859 -0.024746995 -0.1256142 -0.08221209 0.121670894

lstm.bias_hh_l0 f4 [200]
00000000: 94b3 f73c 33a5 e7bc d167 ca3d b011 8b3d
00000010: 744f 1abc 9d3f d3bd 60a3 103d b65d 873d
00000020: b10c bbbc cf6e 93bd 01a1 33bd 5c75 dc3d
00000030: af0a 5cbd 45e6 d2bd 91ac 0fbe f5e8 203e
00000040: 6183 1f3d 420d 3abd 4930 aebc 6e49 6d3d
00000050: 6e3a f03d 50f6 a03d b351 103e 68c6 073d
00000060: eb9d 393d 2132 f8bc 9b92 ac3d 9d6b 9dbc
00000070: 18aa e83d dbd4 ddbd 5f9d a9bd 74f2 8a3d
00000080: b282 013e 23a4 9d3d e967 0d3e 802e ac3d
00000090: 0b16 1abe 49fb 0fbe e78b 173d b2ba 4e3d
000000a0: cea8 0cbe ad8d 99bd 0d68 cabd fa12 963d
000000b0: 0f0f 393d f60e 0bbe b634 8c3c 898b 29bc
000000c0: fbc4 c23d cb79 0b3e db12 d03d b52f a33c
000000d0: 2362 7bbd 790c 87bd 1d53 ffbd d8e6 e7bd
000000e0: 7017 81bd 8b89 f6bd 0e32 c93d 73c1 c43d
000000f0: bc2c 0bbe 663a 1f3d a502 89bd a971 893c
00000100: 12b2 e4bd 81c2 e03c 3f31 fc3c 352b dc3c
00000110: e63b 253c 918f 103e 9cb1 b23c 36c8 fb3d
00000120: c5b1 febd f894 b23c af77 0e3d c9b1 263d
00000130: 263c 81bd 001c 023e f033 15bd 7b35 bdbd
00000140: 830a 0b3e 73ec 2b3d 1ebe 143d b676 bf3c
00000150: d264 cf3c 3089 253b 6430 cbbd b62e 9d3d
00000160: 9f50 1a3e 6423 b4bd 585c b83c 4d40 943d
00000170: 0c25 fe3c 6800 fcbd 75ba 793d 70c4 6d3d
00000180: f73d 1f3d 76e3 bfbd 8bf3 5e3d cd71 45bd
00000190: cedf dc3c 6a2c 943d 2e18 0abe 2e44 d43d
000001a0: 697d aebd fff3 ae3b f385 f63c 0ff5 edbd
000001b0: ecfb 1f3d 34ef 2b3d ecfd c4bc 95fa 9f3d
000001c0: f883 ee3d 6e84 0abe ece6 93bd 2068 e23d
000001d0: efd3 483c 5627 00bd 218d 083e 6cb2 dfbd
000001e0: 3f20 8abd 5f53 25bd ed7d 02bc fe46 00bd
000001f0: 2f5a 86bd c27a 3cbc 6aa2 2ebc d4d9 8ebc
00000200: 4f0b a2bd 0a4a a33a f3d0 1fbd 2f36 e53a
00000210: 9e55 99bd f0c3 dfba 6723 e43d 6237 913d
00000220: 642e 7338 5177 acbd 1db3 7f3d 1060 193e
00000230: 7e99 15bd 0700 ddbd 07bb 19be 4165 603d
00000240: 1a1e 05be adb8 d5bb 49fd 0b3d b244 da3d
00000250: 257b ef3d 8e53 16bd e961 b73d a742 d23c
00000260: c8c4 12be 8c1b 4f3d 60e8 4f3d c8a6 893c
00000270: 812b 13be 9536 943d a999 273d a6cd fbbd
00000280: 59f7 8cbd 1297 833d 170b 50bd 0be1 a6bc
00000290: 95c1 86bd a55f a5bc d4d9 8c3d d21f 163e
000002a0: 627f c93d 6f2f ab3c b5c7 c43c 8bbe c53d
000002b0: 279a d33d d903 e13d 1fc9 f8bc 96f1 0fbe
000002c0: 305a 243d e4f8 4b3d ced3 a6bb 9f77 e43d
000002d0: 62de 983d 1c0c 213e c42f d43b c8a3 7e3c
000002e0: 91b7 f63d 7797 f43c 9847 fd3d 4976 503d
000002f0: d87d 603d afe9 333d 5027 863c 6b27 0fbe
00000300: cf4f a0bd 56ac 09be dae0 62bc 0b4c 74bd
00000310: a586 e8bd d854 f1bd 22d5 0cbd 16fb dabc
0.030236997 -0.028277015 0.09883083 0.06790483 -0.009418357 -0.10314868 0.035312057 0.06609671
-0.0228332 -0.071988694 -0.043854717 0.10764572 -0.053721126 -0.10297827 -0.14030673 0.15713866
0.038943652 -0.0454228 -0.021263259 0.057931356 0.117298946 0.078594804 0.14093666 0.0331482
0.045316618 -0.03029734 0.084264 -0.019216353 0.11360568 -0.108316146 -0.08281969 0.067845255
0.12647513 0.07697322 0.1380917 0.08407307 -0.15047471 -0.14060701 0.036998656 0.050471015
-0.13736269 -0.07497726 -0.09883127 0.07327838 0.045180377 -0.13579926 0.017114978 -0.010348209
0.09510227 0.13620679 0.101598464 0.01992021 -0.061372887 -0.06594176 -0.124670245 -0.11323327
-0.063032985 -0.12037953 0.09824 0.0960721 -0.13591284 0.038874052 -0.066899575 0.01677783
-0.11166777 0.027436497 0.030785201 0.026876071 0.010085082 0.14117266 0.021813206 0.122940466
-0.124362506 0.02179955 0.034782108 0.040696893 -0.063103005 0.12705994 -0.036426485 -0.09238716
0.13578229 0.041973542 0.036314122 0.023372035 0.02531663 0.0025258772 -0.09921339 0.07674925
0.15069817 -0.08795813 0.02250497 0.07238827 0.031023525 -0.12304765 0.060968835 0.058048666
0.038877454 -0.093695566 0.05443148 -0.048204232 0.026962187 0.07235034 -0.13485786 0.10364567
-0.08520014 0.005339145 0.030093169 -0.11619007 0.03905861 0.04197617 -0.02404686 0.078114666
0.11646265 -0.1352708 -0.07221779 0.110550165 0.01225756 -0.031287514 0.13335086 -0.10922703
-0.06744432 -0.040362712 -0.007964593 -0.031317703 -0.0656017 -0.011503877 -0.01065884 -0.017437853
-0.07912313 0.0012457978 -0.03901763 0.0017487461 -0.07487033 -0.0017071944 0.11139565 0.070906416
5.797892e-05 -0.08421195 0.062426675 0.14978051 -0.036523335 -0.10791021 -0.15012752 0.054784063
-0.12999764 -0.006522259 0.0341771 0.10657634 0.1169341 -0.036700778 0.08954222 0.025666548
-0.14332879 0.05056338 0.05075872 0.01680316 -0.14372064 0.07236973 0.040918026 -0.12295084
-0.06883115 0.06425299 -0.050791826 -0.02037098 -0.065798916 -0.020187208 0.06877485 0.14660576
0.098387495 0.020896642 0.024021009 0.09655484 0.103321366 0.10987062 -0.03036934 -0.14057001
0.040125072 0.049797907 -0.005091167 0.111556284 0.07464291 0.15727276 0.0064754207 0.015541978
0.12046731 0.02985738 0.12367171 0.050894056 0.054807514 0.04392403 0.016376168 -0.1397988
-0.07827722 -0.13444647 -0.013847554 -0.059642833 -0.113538064 -0.11783761 -0.034382947 -0.026731055

fc.weight f4 [1, 50]
00000000: 1e84 123e bd4c eb3d 4f6e c6bd 61c6 52bd
00000010: 254e 923a c739 30bd a291 3bbd 3cd4 023e
00000020: e527 ec3d 09b9 ad3d 4a30 f6bd 1329 8dbd
00000030: 322d 35bd 1e54 92bc 9570 10bd 5db2 77bc
00000040: dd6e 6a3d d8e9 17be 8fb9 173e 1687 12bd
00000050: aad9 cfbc 5636 69bd 21b1 4b3d 9163 4fbc
00000060: 01aa fbbd 536f fd3b a872 783d dedc ed3d
00000070: cb39 a33c 8868 17be 8eb5 24bc c636 e0bc
00000080: 168a 5a3d 7c1f 0f3e ee31 14be 2087 d03d
00000090: 1a39 9f3c 5c61 4dbd 3019 f33d 34e3 0fbd
000000a0: ab2e f23d 73a9 603d dee4 18be 1995 a0bd
000000b0: 2b86 0cbe 8437 03bd ac97 563d b5ee 9ebd
000000c0: 0dd7 a7bc 9aa3 fabc
0.14308211 0.11489246 -0.096890084 -0.05145872 0.0011162205 -0.04302385 -0.045793183 0.12776273
0.11531047 0.08482558 -0.12020929 -0.068926 -0.044232555 -0.017862376 -0.035263617 -0.015118209
0.057234634 -0.14835298 0.14816879 -0.03577336 -0.025372345 -0.056936584 0.04972947 -0.012658016
-0.12288285 0.007734218 0.06065622 0.11614393 0.019925019 -0.1478597 -0.010053052 -0.027369868
0.053354345 0.13976854 -0.14472172 0.10182023 0.019436408 -0.050141677 0.118700385 -0.035128787
0.118253075 0.0548491 -0.14931056 -0.07840938 -0.13723056 -0.032035366 0.05239074 -0.077603735
-0.020488286 -0.03059559
