Drift_detection/lstm_model.pth (torch, 504866 bytes, 9 tensors)

lstm.weight_ih_l0 f4 [400, 9]
000000 83 ef 18 bc de 47 f3 bc f2 95 4d 3d 90 36 8f 3d
       -0.009334448 -0.029697355 0.050191827 0.06992829
000010 a7 25 9b bd cd 4d fe 3d 3a 61 1f 3d 3a 23 5d bd
       -0.07575541 0.12417183 0.03891108 -0.053988673
000020 0c 84 a7 3d a1 b5 bc bc 30 dc 9f bd c8 18 14 3d
       0.08179483 -0.023035826 -0.07805669 0.036156446
000030 0c 5e a7 bd 00 e4 07 3d 27 3c 28 3c 26 f4 30 be
       -0.08172235 0.033176422 0.010268248 -0.17280635
000040 2f d0 10 be 61 48 80 3d 5b 5d 6d bc 33 e6 85 3d
       -0.14141916 0.06263805 -0.01448759 0.06538048
000050 2a 36 b1 bd d3 bc ec bc e1 66 11 3b 57 25 e1 3d
       -0.08652909 -0.028898632 0.0022186565 0.1099345
000060 0c 51 d5 3d c3 df 19 bd 20 c3 22 3e ca 72 43 3d
       0.10415849 -0.03756691 0.15894747 0.047716893
000070 42 c8 62 bd d6 43 6e bd c9 f4 4a bd c1 d8 0e 3d
       -0.055366762 -0.058170162 -0.04954985 0.03487468
000080 61 dc a4 3c e5 b1 c0 3d 88 03 8d 3d 70 75 82 3d
       0.020124616 0.09408931 0.06885439 0.06370056
000090 c3 87 a3 bb a5 04 0f be 83 58 e4 3c c4 9f dc bd
       -0.0049905493 -0.13966615 0.027874237 -0.107726604
0000a0 72 67 84 bd ff 00 4a bd 64 e0 c4 be 2d 38 58 be
       -0.06465043 -0.049317356 -0.38452446 -0.2111518
0000b0 48 5a 21 3d 74 74 b1 3d 16 e9 0d bd 7c 12 05 3e
       0.03939274 0.0866479 -0.034646116 0.12995332
0000c0 73 23 ae 3c 8e fe 45 3e fc ee 19 3d 3b d8 48 bd
       0.021257138 0.19335386 0.03758143 -0.04903434
0000d0 74 33 da 3c 06 ae 10 bd bb 9a 42 bd f5 ae ae bb
       0.026635863 -0.03532221 -0.047510844 -0.005330915
0000e0 68 54 80 3d 71 16 f0 3d 2f 8c 95 3c 84 70 05 3e
       0.06266099 0.1172303 0.018255321 0.13031203
0000f0 a3 a4 3d bd 1a a3 b6 bc cc f8 46 3d b8 62 79 3d
       -0.046299588 -0.02229457 0.048577115 0.06088516
000100 66 4f e7 bd 10 01 b8 3a 7d 78 e8 bc 3b ab 0c be
       -0.11294441 0.0014038403 -0.028377766 -0.13737194
000110 4f 97 01 3d 60 2b 57 3d c4 d2 0b be 49 9f b3 3d
       0.03163844 0.0525316 -0.1365462 0.087706156
000120 97 ac be bd 46 5d 99 bd 9d 78 bc bd da 5a 27 3d
       -0.09310263 -0.074884936 -0.09202693 0.040858127
000130 20 9e 1d bd f2 65 8f bc d1 8f 4f bd 4a 7e 34 be
       -0.038480878 -0.017504666 -0.050674263 -0.176263
000140 41 a6 be 3d bb fd 2c 3d bf 46 c8 3d e0 9d 9e 3b
       0.09309054 0.042234164 0.09779119 0.0048405975
000150 80 82 51 bd 4c a9 cf 3d 7e 76 c2 3d 9e ad 1d bd
       -0.051149845 0.10139713 0.09495257 -0.038495652
000160 59 54 41 bc 1d b2 a7 bd 7b 7c 55 bd 2d d2 93 bc
       -0.011799895 -0.08188269 -0.052120667 -0.018044556
000170 0a 69 18 3d c9 a1 3d 3c 6f 29 94 3c 2d 13 87 3d
       0.037209548 0.011574217 0.018086163 0.06595454
000180 dd 2d cb 3d 7c 62 0e bb 96 7a 85 3b db 75 d0 bc
       0.09920857 -0.0021726182 0.0040734513 -0.025446823
000190 b5 26 1a bd af f0 fa b9 bb 68 89 bd 00 6e 23 bd
       -0.03763457 -0.0004786304 -0.06709429 -0.039899826
0001a0 fd 3f 5f 3d 86 1f 95 3d 28 99 e6 bd 52 e5 35 bd
       0.054504383 0.07281403 -0.11259681 -0.04440815
0001b0 e5 cb d8 bc 4e 1c cd 3d 7f fa 9c 3d da 66 82 bd
       -0.026464412 0.10015164 0.07664966 -0.06367274
0001c0 43 11 aa 3d b5 8c 59 3c 35 62 31 3d 0b 93 a1 bd
       0.08304074 0.013278176 0.04330655 -0.07889374
0001d0 9e f4 4f 3d 49 1d e3 3d 6e 84 c9 3d a7 57 be 3d
       0.050770395 0.1108957 0.09839712 0.09294062
0001e0 20 90 2d bd 37 b1 06 3e 18 d5 d8 bc ef 56 55 3d
       -0.042373776 0.1315354 -0.026468799 0.05208486
0001f0 58 8f e1 3d ee 54 9c 3d dd 28 83 3c 4c 4d bf 3b
       0.11013669 0.076333866 0.016010696 0.005838072
000200 5e ad 37 3d 9f bb c5 3d 78 d5 eb bc 96 37 18 bd
       0.04484307 0.096549265 -0.028788313 -0.037162386
000210 c3 8b 6d bd 0e 1b 31 3a 8b b4 42 3d 87 3a cb 3c
       -0.057994615 0.00067560456 0.04753546 0.024808181
000220 b4 13 63 3d 96 34 98 bc 90 34 df 3d f7 bb 22 3e
       0.055438712 -0.018579762 0.108986974 0.15892015
000230 8d 19 7b 3d 47 a5 ea 3d 59 1a 84 bd ba 6a d5 bd
       0.061303664 0.114573054 -0.06450338 -0.10420747
000240 d5 27 3c 3d 53 56 49 3d a4 d0 9f 3d d7 31 a5 bd
       0.045936424 0.04915459 0.07803467 -0.08066147
000250 e7 ae 1a bd 89 9f d7 ba 2a c8 09 be ea 04 be bd
       -0.037764456 -0.0016450743 -0.13455263 -0.09278281
000260 74 10 d9 bd 3d 6e 7f bc 5c 23 a3 bd db 78 9a bd
       -0.10598841 -0.015590248 -0.07965729 -0.075425826
000270 d4 e7 de bd 14 fb 40 3e ed 62 f4 bd d4 7e 7e 3d
       -0.108840615 0.18845779 -0.11932931 0.06213267
000280 f7 2e 57 3e 00 83 5b bc 00 fd 05 bd 6a 14 a7 bd
       0.2101401 -0.013397932 -0.032711983 -0.081581905
000290 cd 18 1f bd 8a cf 33 bd 44 7a 4b 3d 1a 73 8c 3b
       -0.03884201 -0.043899097 0.04967715 0.004286182
0002a0 ad c4 c1 bd c1 c6 46 3d ed 64 9e bc 07 2d d1 bd
       -0.09461341 0.04852939 -0.019335235 -0.102136664
0002b0 d2 43 59 bc fc f6 b3 bd c5 06 47 3d f6 b0 ea 3d
       -0.0132607985 -0.08787343 0.04859044 0.11459534
0002c0 66 62 1d 3d 37 4c 97 bd 3f d5 85 3a 9e 80 94 bb
       0.03842392 -0.07387584 0.0010210647 -0.004531934
0002d0 4d 31 35 3d 4b 94 17 bd 19 b8 9d 3d 7a 19 14 3e
       0.04423647 -0.037006658 0.077011295 0.14462844
0002e0 8d ab c9 3c 49 d7 db ba 3a 19 b0 3d 3e d3 8d bd
       0.024617935 -0.0016772534 0.085985616 -0.06925057
0002f0 0b 06 01 3c 99 87 c9 bd 96 ed 19 3d db ae a5 bd
       0.007874976 -0.09840316 0.037580095 -0.08089992
000300 29 5d a9 bc 92 01 92 3d 84 40 92 3c 6a 80 ef bb
       -0.020674305 0.07129206 0.01785303 -0.0073090093
000310 9d 7b 86 3c 80 8e 76 3d 1f 35 5e bd d4 5d 0f bd
       0.016416365 0.060194492 -0.05424988 -0.03500159
000320 5b 80 95 3d a8 75 8c 3c f5 05 32 bb 79 ff c4 3d
       0.072998725 0.017145947 -0.0027164195 0.0961904
000330 67 d6 3a bd 29 85 fd bc f3 da 36 bc 80 47 a3 3d
       -0.045614626 -0.030947285 -0.0111606 0.07972622
000340 e7 c7 54 bb 27 3b 36 3d 31 aa e7 bb a1 a5 8c bc
       -0.0032467784 0.044490006 -0.007069849 -0.017168822
000350 07 dd 41 3c 58 3b af bd e2 bf 54 3c 8c 0e 61 3d
       0.011832482 -0.08556241 0.012985202 0.054945514
000360 87 0f e5 bc 86 15 da bd e5 cd b1 bb 07 22 07 bd
       -0.027961506 -0.106486365 -0.005426156 -0.032991435
000370 e6 11 d5 bd bd 84 a1 bd 16 09 9d bd b6 db c8 bd
       -0.104038045 -0.07886646 -0.07667749 -0.098075315
000380 e2 c8 f0 3c 22 8a 20 3c 83 1e f5 3d c0 16 5b bc
       0.029392663 0.009798558 0.1196871 -0.013372123
000390 2e 20 f1 3d 68 fe 78 bd b8 b8 50 bd b6 fe d6 3c
       0.11773716 -0.060789496 -0.05095741 0.026244503
0003a0 84 48 36 bd 59 37 4b bc bd 99 74 3d 49 9f c0 3c
       -0.04450275 -0.012403333 0.05971693 0.023513453
0003b0 1d d0 8e 3d 5d af 05 3d 3f 49 3c 3e df 2a 68 3d
       0.06973288 0.032637943 0.18387316 0.05668151
0003c0 cc ef 8f bc c8 56 cd 3d 9e 5d 9a 3d 33 42 d4 bd
       -0.017570399 0.10026318 0.07537387 -0.10364189
0003d0 8e ac 83 3c 29 31 74 3d 8a 19 fe bc d8 68 91 3d
       0.016073491 0.059617195 -0.031018037 0.071000755
0003e0 4e 87 c8 bd c7 31 ce bd 53 25 bd bd 45 98 af 3c
       -0.09791432 -0.10068088 -0.09235635 0.021434912
0003f0 0a 6d fd bd 9b cc d9 bd c7 de 08 bd 80 04 f0 bd
       -0.12374313 -0.106347285 -0.033415582 -0.11719608

lstm.weight_hh_l0 f4 [400, 100]
000000 cf 91 9f bd 68 bc cd bc 29 ba 47 3d d9 36 cc 3c
       -0.07791483 -0.025114253 0.04876152 0.024928497
000010 ab 26 11 be 3c d6 15 3d 86 73 5b bd 9c 05 3d bd
       -0.14174907 0.036581263 -0.05357697 -0.046147928
000020 d9 3c 00 be 70 7c 97 bd d0 ca 8d bd fd a7 5a bd
       -0.12523212 -0.073967814 -0.06923449 -0.053382862
000030 66 a7 a0 3c 73 ab 39 bc 4f 69 ea 3c c9 e6 2f bd
       0.019611072 -0.011332381 0.028614668 -0.042944703
000040 7e d8 eb 3d 62 a0 35 bd 2e 80 0a bc e1 e3 93 3c
       0.11515902 -0.044342406 -0.008453412 0.018052997
000050 6b 15 98 bd 96 d2 9c 3c 80 f3 bf bd b3 47 8c 3d
       -0.0742596 0.019143384 -0.09372616 0.06849613
000060 9e ca 72 bd 2f 3a 1d bc 8c d4 25 bd 34 45 30 3d
       -0.059275262 -0.009596392 -0.040485904 0.043034747
000070 69 8d 9f 3d 50 64 5c bd 88 8d 9f bb 65 07 cd bd
       0.07790644 -0.053806603 -0.0048691668 -0.10011176
000080 d5 6a 31 bd 59 6a fe 3c 46 35 34 39 10 21 8f bd
       -0.043314774 0.03105657 0.00017185984 -0.06988728
000090 11 2f c4 bd 3a 05 db 3d 37 a8 23 3b 37 e4 31 3d
       -0.0957929 0.10694356 0.002497209 0.043430533
0000a0 26 19 c2 bc 60 ae da bd 8d ae 11 be 7a f8 6a 3d
       -0.023693632 -0.10677791 -0.14226742 0.057365872
0000b0 ed 94 8e 3c 4b d2 2f 3d ec 80 e9 bd 09 cc 4c 3d
       0.017404998 0.04292516 -0.11401543 0.04999927
0000c0 fc 16 91 bd e4 43 89 bc 3d 4a a7 bd 2c 6f 85 bc
       -0.07084462 -0.016756006 -0.08168457 -0.016288362
0000d0 e7 01 8c 3d eb 96 c3 bd eb ca c4 bd 6f 71 38 bd
       0.068363 -0.0955027 -0.09609016 -0.045030054
0000e0 b7 a4 2d bd 95 7e 67 3d a3 5e 5b 3d 5c 17 e6 39
       -0.042393412 0.056517202 0.05355705 0.00043886423
0000f0 81 66 b0 bc 9a 04 f7 3d 9d ba a4 3c 5a 17 1b 3c
       -0.021533253 0.120614246 0.020108515 0.009466017
000100 84 e7 27 3d b4 e6 61 bc 97 98 db bd df a8 02 bd
       0.040992275 -0.013787914 -0.107224636 -0.03189933
000110 a5 b0 93 3c f7 9a 01 bd 1a f2 9b 3d 0f 00 a9 3d
       0.018028567 -0.031641927 0.076145366 0.08251964
000120 83 ee db 3c 3e be 75 3d 6e 10 64 bd 16 46 24 bc
       0.02684713 0.059995882 -0.05567973 -0.010026475
000130 d7 d3 57 bd 2c 0d 70 bd 24 10 b9 bd 8f 66 e8 bc
       -0.05269226 -0.05860631 -0.09036282 -0.028369216
000140 f0 f2 7c bc e3 c8 08 3d d9 64 b1 3d 02 78 05 be
       -0.01543878 0.033394706 0.08661813 -0.1303406
000150 0b 28 28 3c 45 31 0f bd ed 42 77 bc 1a 65 b9 3d
       0.010263453 -0.034959096 -0.01509164 0.09052487
000160 74 54 be 3c 24 de 29 3d 74 67 62 3d fc cc 86 3d
       0.02323363 0.041471615 0.05527444 0.065820664
000170 db f7 99 3c 6b 95 05 3a 32 61 89 3d 43 ad 86 3d
       0.018794945 0.00050958124 0.06707992 0.06576016
000180 90 cd 3c 3d 07 e6 55 3c d9 2c f6 bc 20 7e 9d bd
       0.046094477 0.013055331 -0.030050682 -0.07690072
000190 57 50 18 3e 39 31 b5 3c b8 59 51 3d 82 27 c9 3d
       0.14874397 0.022118198 0.051110953 0.09821989
0001a0 c4 6b a1 3d 2c e9 68 3b d3 08 c7 bc a3 61 42 bd
       0.07881883 0.0035539372 -0.0242962 -0.047456395
0001b0 4d 2b a5 bd f9 29 25 3d ff 95 98 3c bb b0 d2 bd
       -0.080648996 0.04032323 0.018626211 -0.10287615
0001c0 5c 88 7e bd 60 89 3e bd cc cb 54 bd cc 6d 7e bd
       -0.06214176 -0.04651773 -0.05195217 -0.06211643
0001d0 8a 20 16 3e 7f 57 20 bd fd c8 98 3d 97 5b 2f bd
       0.1466085 -0.039145943 0.074602105 -0.042811956
0001e0 30 ef 2f 3e f8 ce 94 bd db 2b 91 3c ba 66 f2 3d
       0.17181087 -0.07266039 0.017721107 0.11836
0001f0 6c 75 b5 3d 3d 95 e7 bd 77 4a 01 3e 8c 04 b9 bd
       0.08860287 -0.11307762 0.12626062 -0.090340704
000200 81 84 b4 bc 5d c5 98 3b 00 c4 8d bd c6 81 90 bd
       -0.022035839 0.0046621994 -0.0692215 -0.07056002
000210 c2 5f ab bc a3 bd 91 bd 8d 10 84 bc c8 57 f9 3d
       -0.020919684 -0.071162485 -0.016121173 0.12174946
000220 08 40 92 3d a9 76 8d 3d 67 c7 65 3d c8 3a fe 3d
       0.07141119 0.06907398 0.056098368 0.124135554
000230 bf 60 8a 3a eb f8 b9 bd 55 00 c3 3c a6 5c e1 bd
       0.0010557397 -0.090806805 0.02380387 -0.110039994
000240 59 56 ee 3d 8b 19 5b bd 2b 16 75 bd 34 6d 9f bc
       0.11637563 -0.053491157 -0.059835594 -0.019461252
000250 bc d5 fe 3c b4 2b 3a 3d f5 e3 8a bd b1 28 7a bd
       0.031107776 0.045451835 -0.067817606 -0.061073963
000260 54 ed da 3c b2 9a 03 bc a7 2e 49 3d b5 55 11 bd
       0.026724495 -0.008032488 0.049116757 -0.035482127
000270 46 17 9e 3c 4b ee a7 3c a7 2f b1 3d 18 c6 23 3d
       0.019298207 0.02049937 0.08651667 0.03998384
000280 93 68 7d bd 06 2d 6f bd 68 ee 67 3d 4c 71 2f 3d
       -0.061867308 -0.058392547 0.056623846 0.042832658
000290 19 08 24 3d f3 1d a2 bd 7d f2 88 3d cd 0e 5a bd
       0.040046785 -0.079158686 0.06686876 -0.05323677
0002a0 db 51 d6 3c 27 1c ea 3d ff cd d2 3c 57 4a 89 3b
       0.026162079 0.11431151 0.025732992 0.00418977
0002b0 37 01 1e 3d b8 81 c2 bc 21 e7 6c bd de 48 e6 3c
       0.038575377 -0.023743495 -0.05783761 0.028110918
0002c0 a6 f4 1a bd e8 ff 6a bd 34 d9 0b bb 79 ae a7 bd
       -0.03783097 -0.057372957 -0.002133918 -0.08187575
0002d0 2f 1f 70 bd 0a ba 19 3d 04 38 3c bc be 4a 70 bd
       -0.05862349 0.037530936 -0.011487965 -0.05866503
0002e0 ec 9f 71 ba 2f 70 8e 3d 09 8d b6 bc eb 60 24 3d
       -0.00092172506 0.06954991 -0.022284048 0.04013149
0002f0 b5 74 84 bd 86 01 1b 3c 65 47 45 bd 8f 83 a8 3d
       -0.064675726 0.009460812 -0.04816379 0.08228218
000300 b1 b8 ab 3d 4c 22 ba bd 3c b2 ae bd ff af 73 bd
       0.083848365 -0.09088573 -0.08530089 -0.059494015
000310 50 48 00 be 3e 9a 3f bc 66 bb c4 bd 30 1b bc bd
       -0.12527585 -0.011694489 -0.09606056 -0.09184873
000320 1d d0 a7 bd 66 34 57 bc 01 2d 6e 3d 4c 66 51 3d
       -0.08193991 -0.013135051 0.058148388 0.05112295
000330 af b2 a0 bd 1b b8 21 bd f3 c6 dd 3d 17 e3 3d be
       -0.07846581 -0.039482217 0.10828962 -0.18543659
000340 79 26 d8 bd c2 c4 86 bd fc 18 63 3c e2 d5 b4 bd
       -0.10554213 -0.06580497 0.013860937 -0.088298574
000350 59 d8 e3 bd 36 0e 38 bd e7 10 95 bc 58 55 7f 3d
       -0.111252494 -0.044935428 -0.018196536 0.06233725
000360 a6 49 85 bd 4f 30 b7 3c b3 45 a0 bd 45 a7 84 bd
       -0.06508188 0.022361903 -0.07825794 -0.06477217
000370 be e9 2d 3d 18 5a e6 bd 19 90 5a bd 4c 8d c0 3d
       0.042459242 -0.11247653 -0.05336008 0.0940195
000380 c4 d6 ba 3c a0 a8 b0 3d ca 05 64 bd 05 67 8e 3d
       0.022807486 0.08625913 -0.055669583 0.06953243
000390 9f ad 8d bd 46 30 bd bc ec e0 3d bd 39 fb a0 bd
       -0.06917881 -0.023094308 -0.04635708 -0.07860417
0003a0 39 ab fd 3c 76 42 a2 3d 7c b2 51 bd af d3 a9 bd
       0.030965434 0.07922833 -0.051195607 -0.082923286
0003b0 e0 d2 19 be 40 1e a8 3d 6a 4f 6e bc 57 f4 c9 3d
       -0.15021849 0.08208895 -0.014545301 0.09861057
0003c0 3d 85 d2 bd 25 db 9a 3d e5 9c 05 be 37 62 b9 3d
       -0.102793194 0.0756133 -0.13048132 0.09051936
0003d0 1f 08 a1 3d d8 c4 0d bc 69 93 bc 3d 0f ac 2b 3d
       0.07862877 -0.008652888 0.09207804 0.041912135
0003e0 4e 0d ce bc c4 c2 da 3d a7 6f 03 3d 1e a4 51 3c
       -0.025152829 0.1068168 0.0320889 0.012795476
0003f0 69 03 87 3c 7a de 43 bc 4d ab 79 bc f4 52 ee bc
       0.016481118 -0.011954898 -0.015238595 -0.02909229

lstm.bias_ih_l0 f4 [400]
000000 a8 5d a8 3b cc 30 41 bc b2 8c c3 3b 2f d0 3a bd
       0.005138118 -0.011791419 0.0059677 -0.045608696
000010 2d 2b 2e bc ce ef d1 3d bd a1 32 bd 9a 8a bc 3c
       -0.010630411 0.10250817 -0.043611277 0.02301531
000020 f7 87 44 3d c8 dd 50 bd 0b ce 57 bd 58 42 b3 bd
       0.04798123 -0.050992757 -0.052686732 -0.087528884
000030 3b c9 a1 bd f0 00 a6 3d c0 fe 93 3d 9d 21 94 3d
       -0.0789971 0.081056476 0.07226324 0.07232974
000040 eb b0 a5 bd 7b 3e bc 3c af 3d 45 bd d8 b5 b3 bc
       -0.08090385 0.022979012 -0.04815453 -0.021937296
000050 9f 9d f4 3d 80 08 be bd ba 40 80 bc 5f c8 a4 3c
       0.11944126 -0.09278965 -0.015655864 0.020115076
000060 41 41 9f 3c 13 f9 51 bd d3 7c b4 bc b3 cd 80 bd
       0.019440295 -0.051262926 -0.022032177 -0.06289234
000070 76 e2 a2 bd 76 52 b9 3d 3a b2 36 3d 7e a3 cb 3d
       -0.0795335 0.09048931 0.044603564 0.09943293
000080 4b 95 b4 bd 16 b7 cc bd f5 76 2e 3d 32 ad 31 3d
       -0.08817538 -0.09995858 0.042593915 0.043378063
000090 5e 02 3e 3e 09 5b bc bd 28 0f d2 bd fe 9d a7 bd
       0.1855559 -0.09197051 -0.10256797 -0.081844315
0000a0 89 6b 7d 3d 7f e7 70 bd b1 d6 00 bd 44 a2 ef 3c
       0.06187013 -0.058814522 -0.031454746 0.029252179
0000b0 41 d3 e1 bc 85 09 2b 3c 18 06 ec bc 2c b6 b2 bc
       -0.027566554 0.010439281 -0.0288115 -0.021815382
0000c0 9d db c1 bc 73 c1 38 3d 0f 5a 8e 3c 10 59 ba bb
       -0.02366429 0.045106363 0.017376928 -0.0056868866
0000d0 b2 f4 82 3d 2c 14 86 3c 71 74 c4 3d f3 d9 96 3c
       0.06394328 0.01636704 0.09592522 0.018414473
0000e0 56 42 93 3d 8b e7 a3 3d b7 4a c0 bd a8 4e 5b 3d
       0.07190387 0.08003148 -0.09389251 0.05354181
0000f0 63 05 3d 3d 88 a2 d0 3d 04 ce d6 3c 8e 30 fc 3c
       0.046147715 0.101872504 0.026221283 0.030784871
000100 c6 cd a7 3d 78 52 21 3d da 2d 95 bd bc b4 83 bd
       0.08193545 0.03938529 -0.07284136 -0.06430957
000110 18 5f c3 3d 68 c6 d3 bd 16 5d 2f 3e c2 f6 ca 3d
       0.09539622 -0.10340577 0.17125353 0.099103466
000120 fb 53 0a 3c 69 a7 16 bd 2c fb 3f bd 00 23 50 bd
       0.008442874 -0.03678075 -0.046870396 -0.05081463
000130 28 2c 87 3d 5a bd a4 bd e2 a6 a2 3d 10 ed ad bd
       0.06600219 -0.080439284 0.079419866 -0.08492482
000140 1a 7a ed bc 5c a7 39 bd c4 f3 4c 3d 57 70 b2 bd
       -0.028988887 -0.045325622 0.05003716 -0.087128334
000150 2c 97 60 3d d6 17 e8 bc d9 ab 28 bd 40 6f ad bd
       0.05483167 -0.028331678 -0.04117951 -0.08468485
000160 f0 cd 28 3c 1e b7 ac 3d 25 24 1f 3d ad d6 8d bd
       0.010303006 0.08433364 0.03885283 -0.06925712
000170 69 c4 c2 bd d3 32 8a bd 72 31 90 3c 38 73 f5 3d
       -0.095101185 -0.06747975 0.017601702 0.11984867
000180 a5 76 df 3d 2e 64 83 3d 2e 40 86 3d 1b 06 f4 bd
       0.109113015 0.06415592 0.0655521 -0.11915227
000190 e0 7a f4 3c 4a fb 83 bc 72 25 93 3d 00 6e 28 3d
       0.029843748 -0.016111035 0.071848765 0.04112053
0001a0 28 17 cc 3c 48 cd 6a bd f2 41 19 3d e9 39 ac 3d
       0.024913386 -0.057324678 0.037416406 0.08409483
0001b0 25 0a 08 3d 7d 2a 74 3d 4d 91 36 bc d5 c2 2c bd
       0.0332128 0.059610832 -0.011143041 -0.042177994
0001c0 48 93 3d 3c 07 69 27 3d f8 6f 99 bd 0a 8e 2f 3d
       0.011570759 0.040871646 -0.074920595 0.04286007
0001d0 18 ef 13 3d cd 54 96 bd 00 a7 83 bd b7 83 03 bc
       0.03611669 -0.07340393 -0.06428337 -0.008027009
0001e0 23 5a db 3d 94 ee f8 3c ed 60 b0 bd 2c d8 9f 3c
       0.107105516 0.0303872 -0.08612237 0.019512258
0001f0 21 7e 1b 3d 28 71 9d bc f2 33 ea 3d fc ea d3 bd
       0.037962083 -0.019218996 0.11435689 -0.10347554
000200 fa a2 e2 3c e6 04 c4 3d 57 27 37 3c ce f8 00 3d
       0.027665604 0.09571247 0.011178813 0.03148728
000210 79 06 d1 bc 77 74 8b 3d 3a 65 93 bd cd e6 25 bd
       -0.025515782 0.06809323 -0.07197042 -0.040503312
000220 9c 69 a6 bd d1 25 9f bd 19 2b 95 bd 4f 81 80 bd
       -0.08125612 -0.07770885 -0.07283611 -0.06274664
000230 ca 94 62 bd 6b 3b aa bd 2f 25 8b 3d af 7e be bd
       -0.055317678 -0.08312114 0.067942016 -0.09301507
000240 50 0b b4 bd 37 cc df 3c 14 03 2d bd 8b 2f df 3b
       -0.0879122 0.027319057 -0.042239264 0.0068110875
000250 b4 3d 64 3d 3e ec 77 3d b4 a9 59 3d f4 5d 9b 3c
       0.055722907 0.060528032 0.053140357 0.018965699
000260 02 1f 12 bd 92 c8 8e 3d 3d 98 87 bd 4c c1 d0 3d
       -0.035674103 0.069718495 -0.06620834 0.101931185
000270 b0 1d 78 3d 86 ed 03 bc 60 13 3c bc 8e aa 0c 3a
       0.060575187 -0.0080522355 -0.011479229 0.0005365991
000280 2b 6d 26 3a ef f7 13 3d 36 b0 86 3c bb dc a4 3d
       0.0006348665 0.03612512 0.016441446 0.080499135
000290 e6 49 81 3d 28 1c a5 bd 4a f2 7c 3a ce 31 4f bd
       0.06312923 -0.08062011 0.0009649141 -0.050584607
0002a0 d2 a9 a8 3d b1 68 e7 bd 43 8a be 3d 4d b0 87 bd
       0.08235516 -0.11299265 0.09303715 -0.066254236
0002b0 24 5d bc 3d b7 64 8b bd 2b b1 c6 bd 2f 09 56 bd
       0.09197453 -0.06806319 -0.09701761 -0.052254852
0002c0 91 73 1b 3d 93 bf db bc dc 56 16 3b 3c 60 36 3d
       0.03795201 -0.026824748 0.0022939956 0.04452537
0002d0 c0 6a 7f 3b 38 e0 9b bd bd 36 a0 bd 7e ae 7c 3d
       0.003897354 -0.07611126 -0.078229405 0.061689846
0002e0 5c 8a 89 bc 1a a3 cd 3b 18 15 8e bd fc f2 2c bc
       -0.016789608 0.0062755467 -0.06937617 -0.010555979
0002f0 01 1e 17 bd 0a 8e 6c bd f6 d9 97 3d 64 ae 46 bd
       -0.03689385 -0.057752647 0.074146196 -0.048506156
000300 86 d4 cc 3a c9 c6 c8 bd 15 29 16 ba 4f 5f e4 bc
       0.0015627302 -0.0980354 -0.00057281676 -0.027877478
000310 85 38 22 3d bb e7 c6 bd 23 25 a1 3d e8 ab 64 bb
       0.039604682 -0.09712168 0.078684114 -0.0034892503
000320 24 d3 bd 3c f7 51 fe 3c e7 4f 6e bd df dc 2c bd
       0.023171969 0.031044943 -0.05818167 -0.042202827
000330 6b 4e 04 3d bb 63 74 bd 12 36 47 3c b8 61 9e bd
       0.032301348 -0.059665423 0.012158887 -0.07733482
000340 40 18 8e 3d c8 d1 07 3d f3 17 f2 3c 14 82 8c 3c
       0.06938219 0.033159047 0.029552436 0.01715187
000350 a5 06 33 bd 8f f9 82 3a c9 84 d4 bd fe 7c 20 bc
       -0.04370751 0.0009992587 -0.10376889 -0.009795425
000360 8e 96 db 3c f2 db 40 bd 9a b5 97 bd 87 62 23 bd
       0.026805189 -0.047084756 -0.074076846 -0.039888885
000370 d0 4b 87 bd eb 6e 98 3c fa 98 6f 3d 83 ff 83 bd
       -0.06606257 0.018607577 0.0584955 -0.06445219
000380 c2 85 b5 bd 32 ab 54 3b 17 4b 07 3d 78 1f 73 bd
       -0.08863403 0.0032450673 0.033030596 -0.059356183
000390 dd 7a 28 3d b7 c4 63 3d 07 c2 2a 3d 03 58 4b 3b
       0.041132797 0.055607524 0.041688945 0.00310278
0003a0 e9 bc be bd 91 8a 12 3d ac cd a5 bd 53 b1 aa 3d
       -0.093133755 0.03577668 -0.080958694 0.08334603
0003b0 77 6e da 3c e1 a4 5c 3d 94 78 9c bd 5a 09 ae 3d
       0.026664002 0.05386818 -0.07640186 0.084978774
0003c0 7f 61 93 bd 82 c7 2e 3d 8c 61 38 3d 1e cb a1 3d
       -0.0719633 0.042670734 0.045014903 0.0790007
0003d0 0d 85 74 3d 7d 16 8e bd f6 6d 3d bd 8c 52 4b bd
       0.0596972 -0.06937883 -0.046247445 -0.04963927
0003e0 04 07 85 bd b6 ef 34 3d 4f bd 43 bd 5c c7 99 bd
       -0.06495479 0.04417392 -0.04778796 -0.07508728
0003f0 3d 81 58 bd 18 ba 87 bc cf a4 28 bc 6d 22 43 3d
       -0.052857626 -0.016568229 -0.0102932 0.047640253

lstm.bias_hh_l0 f4 [400]
000000 c4 8b bc 3c f5 f6 4e bd f5 35 80 3b 33 5a a0 3d
       0.023015864 -0.050528485 0.003912682 0.07829704
000010 09 d4 a6 bd 18 60 35 3c 59 d8 b4 bd 37 e4 b7 3d
       -0.08145911 0.011070274 -0.088303275 0.089790754
000020 73 f1 9b bd 6f e3 d7 3b 96 fc 90 3c 47 9e a7 bd
       -0.07614412 0.0065883915 0.017698567 -0.08184486
000030 22 52 66 bd 84 57 56 bd 1e aa 85 bd 04 1a 25 bd
       -0.05623067 -0.052329555 -0.06526588 -0.040308014
000040 9a c7 0a 3d fa 96 86 bd 9f e3 66 bd d8 ca 96 3d
       0.03388176 -0.06571765 -0.05636942 0.07362908
000050 7a 31 e8 3d f8 50 98 bc f2 76 5a bd 62 8c 26 3d
       0.11337562 -0.018593296 -0.05333609 0.040661223
000060 ca 33 b3 bd b8 4a af 3d 3e fc 70 3c 84 4c 67 3d
       -0.08750112 0.08559173 0.014708577 0.056469455
000070 da b2 98 bd 44 63 80 3c 9c f2 7b 3d 26 6a a9 3d
       -0.07455988 0.015672334 0.061510667 0.08272199
000080 72 13 a1 bd 86 ea 26 3c 37 55 4f bd 01 3c 47 3d
       -0.07865037 0.010187751 -0.050618377 0.04864121
000090 a2 c2 3a 3e a4 c6 0d bd d2 63 9f bd 8d 7c c5 bd
       0.18238309 -0.034613267 -0.07782711 -0.09642897
0000a0 0b 22 5b 3d bb d3 90 bd 74 78 4f 3d da 63 27 bd
       0.053499263 -0.070716344 0.050651982 -0.04086671
0000b0 c9 d2 91 3d 94 b0 35 3c fd 67 27 39 4b 3f 91 3c
       0.07120282 0.011089463 0.000159651 0.017730376
0000c0 fa 41 8c bd 61 17 e3 3c 30 83 19 3b 65 39 87 bd
       -0.068485215 0.027721109 0.002342414 -0.06602744
0000d0 aa 0b a4 3d 61 8b 69 3d 87 4b 4e 3d 74 4f bf 3b
       0.08010037 0.057017688 0.050364997 0.005838329
0000e0 be d8 cf bd 04 3a af 3d 69 72 2e 3d 26 47 e0 bc
       -0.10148762 0.085559875 0.04258958 -0.027377676
0000f0 bf 47 9c 3b 9b cf ab 3d 24 9e 30 bd 2d b4 72 bb
       0.004769295 0.08389207 -0.043119565 -0.0037033663
000100 10 08 bb bd 9c 01 9c 3d 2e 80 32 bd 28 c4 89 bd
       -0.09132397 0.076174945 -0.043579273 -0.06726867
000110 c1 00 f3 bb f6 9f 1b bd cb a5 51 3e 72 61 de 3d
       -0.0074158614 -0.037994348 0.20473401 0.1085843
000120 7b 85 4d bd 33 e9 ad 3d 34 c9 75 bd 79 2b 63 bd
       -0.050176125 0.08491745 -0.060006335 -0.05546138
000130 c7 34 50 bd 8c 4f 4e bd c5 e8 99 3d dd 93 f1 bc
       -0.050831582 -0.05036883 0.075151004 -0.029489452
000140 ef 9e 0f bd 5e 83 5e bd 1c be 25 3d d6 ee 68 3d
       -0.03506368 -0.0543245 0.040464506 0.056868397
000150 76 f3 ba bc 39 d0 e8 3d 79 b0 68 3d 27 98 98 3d
       -0.02282117 0.1136784 0.056808922 0.07450896
000160 ea 1d 89 bc 77 f0 85 bd 1c 58 4d bd e2 6c 50 bc
       -0.016737897 -0.06540006 -0.050132856 -0.012721272
000170 07 14 28 bd c2 d3 a1 bc 08 36 80 bb ad 28 20 3e
       -0.041034725 -0.019754294 -0.003912691 0.15640517
000180 5d a4 bd 3d 9c 52 9e 3c c4 df 5c 3d c6 bc d0 3b
       0.092598654 0.0193265 0.053924337 0.00637016
000190 a6 2f 83 bc 96 15 09 3d f2 2f 7f bc a4 4f 88 bd
       -0.016013931 0.03346785 -0.015575396 -0.06655815
0001a0 c4 f0 20 bd ed 7e 49 bd ae 64 16 3d 37 4b ac bc
       -0.039292112 -0.04919331 0.03671711 -0.021031959
0001b0 6d 5d 0f 3d e1 99 ab 3d 8a d9 b5 bc ca 52 88 bc
       0.035001207 0.083789594 -0.022198457 -0.01664104
0001c0 47 84 2d bd 50 93 4d bd 9f f8 6c 3d 06 44 a5 3c
       -0.042362478 -0.050189316 0.05785429 0.020174038
0001d0 0d 49 be 3c d6 3f 94 3d 16 4b 36 3d 35 e1 60 3c
       0.023228193 0.07238738 0.0445052 0.013725569
0001e0 bf 23 fd 3d c4 a9 4a bb a9 bd 91 bd 81 f9 0e 3d
       0.12360334 -0.0030923942 -0.07116253 0.034905914
0001f0 34 63 00 bd b8 c7 83 bd 91 d7 20 3d 05 d2 f4 bc
       -0.031344607 -0.06434578 0.03926808 -0.029885301
000200 bb 3e df bd 32 14 9f 3d ca 36 5e 3a ae 91 97 bc
       -0.10900637 0.07767524 0.0008476792 -0.018502083
000210 20 7b 96 bd 29 17 2e 3d d8 64 c5 3c ce ac 58 bd
       -0.07347703 0.042502556 0.024095938 -0.052899174
000220 22 14 1f 3d 3d 5b 6a bd 42 a5 ac bd 29 df b7 bd
       0.03883756 -0.057215918 -0.08429958 -0.08978111
000230 c2 df 8d bd 47 54 78 3d 37 ef 4d bc a8 49 a6 bc
       -0.06927444 0.06062725 -0.01256924 -0.020298794
000240 62 cc e7 3b f5 89 bc 3d 4a 9e cc 3c de 75 32 bd
       0.007073925 0.09206001 0.024977822 -0.04356944
000250 41 7a 4c bd f3 43 45 3d fa 83 30 3c dd 39 88 bd
       -0.049921278 0.048160505 0.010773653 -0.066516615
000260 d2 80 a1 3d 89 ea 1f 3d f4 16 00 be 39 02 00 3d
       0.07885899 0.03904203 -0.12508756 0.03125212
000270 39 52 de 3c c7 53 e0 bd 98 59 c7 bd b3 a1 0f 3c
       0.027138816 -0.10953479 -0.097338855 0.008766579
000280 f1 ce 37 bd a9 65 80 bd 07 32 8e 3d 88 56 9b 3d
       -0.04487509 -0.0626939 0.06943136 0.07584864
000290 a6 b8 ad ba 39 d2 bd bb 9e be 73 3c a4 32 a7 bd
       -0.0013253882 -0.0057928828 0.01487699 -0.08163956
0002a0 46 80 6d 3d 99 cd e3 bd b8 bd a8 bd 9a eb b0 bc
       0.05798366 -0.11123199 -0.08239311 -0.021596719
0002b0 1a ca 53 bb bd 9d b7 bd ca 07 bd bc 1f f2 d2 bd
       -0.0032316507 -0.08965633 -0.023075003 -0.10300087
0002c0 c6 bc 92 bc f2 e1 b7 bd 16 66 21 bd 9a e9 9e 3c
       -0.01791228 -0.089786425 -0.039403997 0.0193985
0002d0 29 57 b4 bd f7 ca 4d bd d7 b8 8e bd c4 76 bf 3c
       -0.08805687 -0.05024239 -0.06968849 0.023372062
0002e0 fb 7a 9a bd 0f 86 70 bd 21 59 54 3c c5 09 ac 3c
       -0.07542988 -0.0587216 0.012960703 0.021000752
0002f0 4b 8e 08 3d 4a 65 e6 3c a4 18 bf 3d 2f 77 ca bd
       0.033338826 0.02812447 0.09330872 -0.09886014
000300 42 6b b6 bd 71 b1 90 bd 94 b8 86 3d 3d d3 ab ba
       -0.089071766 -0.07065094 0.06578174 -0.0013109219
000310 c8 03 83 3b 62 cf 97 bd df fe b1 3c e8 41 e2 3c
       0.0039982535 -0.07412602 0.021727977 0.027619317
000320 ae 68 4a 3d 90 5e c7 bb 22 60 8d bc f6 69 79 3d
       0.049416237 -0.006084271 -0.017257754 0.060892068
000330 69 31 d3 ba 4f 1f 8a 3c 2b 12 81 3d bd a5 88 3d
       -0.0016112748 0.016860632 0.063022934 0.06672237
000340 b8 47 95 bd e1 3e a9 bd e9 a9 81 bd aa 14 a8 3c
       -0.0728907 -0.08263946 -0.06331236 0.020517666
000350 fa 28 d3 bc 0e 18 43 3d 6c 50 2c 3d 2e 85 ac 3c
       -0.025776375 0.047630362 0.042068884 0.021059599
000360 80 94 20 3d a4 1a 6d bb 7f 17 4c 3c ac 1f 34 3d
       0.03920412 -0.003617921 0.012456774 0.043975517
000370 5f 95 50 3d 8a 34 62 bd f8 5b d0 bb b9 2c 96 bc
       0.0509237 -0.055225886 -0.00635862 -0.018331872
000380 8e f1 7d 3c b4 3e 37 bc f3 6a 17 bd 9f 7c 6a bb
       0.015499486 -0.011184383 -0.03696723 -0.0035779846
000390 94 38 86 bd c1 fc 3e 3d 1d 2d 50 bd d1 0c bd bd
       -0.0655376 0.046627764 -0.050824273 -0.0923096
0003a0 8e 7c a4 3d 49 0d b1 3b 09 45 88 3d 19 e3 82 bc
       0.080315694 0.005403195 0.066537924 -0.01597743
0003b0 f1 2a f5 3c 00 a7 e6 bc 14 08 f2 bc b3 e9 db 3c
       0.029927703 -0.028155804 -0.029544868 0.026844835
0003c0 30 2b b5 3d f9 3a 0c bc 5f 1e 7f bc dd 7e 99 3d
       0.08846128 -0.008558982 -0.015571206 0.074949004
0003d0 be 1f a4 bc f4 6f a3 3d a7 7d 90 bc bd 2f 42 bd
       -0.020034667 0.07980338 -0.01763804 -0.047408808
0003e0 fd 20 36 3d 91 fb 6a 3d f2 1b 2f 3c b9 81 05 3d
       0.044465054 0.05736882 0.010687815 0.032594416
0003f0 35 6e b1 bd bf 7d ed bc 7b 09 07 3d 89 23 89 bd
       -0.086635984 -0.028990624 0.032968026 -0.06696231

lstm.weight_ih_l1 f4 [400, 100]
000000 c8 9c ac bd 4b 9a 2f 3d 2e f7 9b 3d 92 f5 23 bd
       -0.08428341 0.042871755 0.07615505 -0.040029116
000010 48 bc ae 3d 5d 96 4a 3c 1d 71 33 3d be e1 10 bb
       0.085320055 0.012364951 0.043809045 -0.002210721
000020 08 ab 1c bd d7 f2 d3 3d 46 88 80 3d 0c f8 d3 3d
       -0.038249046 0.103490524 0.06275992 0.103500456
000030 a6 c9 9e bd 05 d3 65 3d ee 13 19 bd fd 1f 3d 3d
       -0.07753305 0.056109447 -0.037372522 0.046173085
000040 a7 f1 36 bd 07 b0 48 bd 8d 6b 25 3d aa 6a 77 bd
       -0.04466405 -0.048995998 0.04038577 -0.060404457
000050 57 ca 06 be e4 9e fd 3c 26 e7 0d 3d 04 20 84 bd
       -0.13163124 0.030959554 0.03464427 -0.06451419
000060 f1 b6 ab 3d 00 fb 35 3c 29 87 3c bd 23 da e2 bd
       0.08384503 0.011107206 -0.046027336 -0.110767625
000070 55 2f d5 bc 84 d2 bb bd 0c 8a a7 3d a4 d1 a6 3d
       -0.026023546 -0.09171012 0.08180627 0.081454545
000080 d0 48 49 bd f1 6c ef bc 47 7e 38 bd 94 19 55 bd
       -0.049141705 -0.029226752 -0.045042302 -0.052026346
000090 e8 19 04 3e df 9d a4 bd 59 3f 90 3d ea 93 80 3d
       0.12900507 -0.08037924 0.070433326 0.06278212
0000a0 af e3 59 bd 7c b5 b7 bd cd b0 8d bd a7 90 5f 3d
       -0.05319565 -0.08970162 -0.06918488 0.05458131
0000b0 8c 28 81 3d 28 e7 b8 3c c3 46 62 bd 74 96 72 bc
       0.06306562 0.022571161 -0.055243265 -0.014806379
0000c0 6e f8 d8 3d e7 07 3a bd b3 cd 5e bd 7a 50 c2 bc
       0.10594259 -0.045417693 -0.05439539 -0.023720015
0000d0 05 5d 18 bd 76 5b 8c bd 01 e7 90 3b da 7c d2 bd
       -0.037198085 -0.06853382 0.004422069 -0.1027772
0000e0 87 90 35 bd 05 8e d0 bd fe 11 8c 3d a3 cb a0 bd
       -0.044327285 -0.10183338 0.06839369 -0.078513406
0000f0 f6 6e ed 3c a3 49 23 bd 9f dd 1f 3d e3 d5 67 bd
       0.028983574 -0.039865147 0.039029714 -0.056600463
000100 2c fb 2d 3d db 89 17 bd 93 4f 35 3d b4 58 be 3d
       0.042475864 -0.036996704 0.04426534 0.092942625
000110 1b 16 e5 3c 59 c1 16 bd 43 c7 fb bd 78 28 c2 bd
       0.027964642 -0.036805484 -0.122938655 -0.09480375
000120 45 3c 8c bd 2c 99 0a 3c 40 4d c1 3d e1 3f 8b 3c
       -0.06847433 0.008459371 0.094385624 0.016998233
000130 29 03 0b 3d 94 52 0b 3d 6d 6a 84 3d e6 2e f6 3c
       0.03393856 0.0340143 0.064656116 0.03005166
000140 79 05 62 3d 25 27 d4 3d f4 09 96 3c 33 b2 06 bd
       0.055181 0.10359029 0.018315293 -0.032884788
000150 88 11 2c bd 74 93 97 ba 65 0f 36 3d ab ab 33 bc
       -0.042008907 -0.001156433 0.044448275 -0.010966222
000160 fd 70 19 3d 01 aa a7 3a ee fe 9b 3d d1 e5 c2 3b
       0.03746127 0.0012791754 0.07616983 0.0059478064
000170 77 5a 6d 3d c2 ee bb 3d 77 78 80 bd 72 43 a0 bc
       0.057947602 0.09176399 -0.06272977 -0.01956341
000180 99 b6 c1 bd ef 8a d6 3b 6c b0 80 3d ad 52 96 3b
       -0.09458656 0.006547324 0.0628365 0.0045874924
000190 e3 e8 96 3d 20 60 52 bd c5 ef 77 3d 16 b2 88 bd
       0.07368638 -0.051361203 0.060531396 -0.06674592
0001a0 95 3b a7 3d b6 3a aa bc 7d 67 88 bd e7 16 8f 3b
       0.08165661 -0.020779949 -0.06660364 0.004366744
0001b0 1e d8 1c 3c 59 0c 90 3c 4a 92 80 bd 86 60 a5 3d
       0.009573011 0.017584013 -0.062779024 0.08075051
0001c0 2b c8 38 bd 03 2e 8f bd 54 d5 e2 3d d2 f7 7d 3c
       -0.04511277 -0.06991198 0.11075845 0.0155009795
0001d0 27 23 8e bd 68 84 b3 bd 57 c0 e4 3c 83 c0 af 3d
       -0.069402985 -0.08765489 0.027923746 0.085816406
0001e0 2c ae f3 3c 36 45 b1 b9 d0 66 bf 3d 0e 38 16 3d
       0.029746138 -0.00033811637 0.09345782 0.03667455
0001f0 11 eb b7 3c 69 bb b7 bb a2 dc 71 bd 96 48 62 3d
       0.022450956 -0.005607058 -0.059048302 0.055245005
000200 db 14 90 bd b0 34 f3 bd 78 99 94 bd 0f fc d0 bc
       -0.07035228 -0.11875284 -0.07255834 -0.025510816
000210 f7 7e 97 3d 38 fa 15 bd f2 10 b7 3d 72 e4 41 bd
       0.073972635 -0.03661558 0.08938779 -0.047337003
000220 71 65 94 bc 3d f0 24 bb 1c 49 59 bc 9e 94 03 bc
       -0.018114777 -0.0025167607 -0.01326206 -0.008031039
000230 85 08 b0 3d cd 46 33 bd c5 09 80 bd 52 f5 cc 3d
       0.08595375 -0.043768693 -0.062518634 0.10007729
000240 ad cc d2 bd 5b ff f7 3d 3e 13 0f 3d cb 44 de 3d
       -0.10292945 0.12109252 0.03493046 0.10852965
000250 4c 3b a8 3d 2f a6 c0 bd 22 49 8f 3d 64 73 6f bc
       0.08214435 -0.09406697 0.06996371 -0.014614914
000260 f5 1f 25 bc f5 06 b2 bd 2f 5c 54 3d 4d 37 c4 bd
       -0.01007842 -0.08692733 0.051845726 -0.0958086
000270 a7 8e b3 3d 75 eb a3 bb 5d 9b 02 3d e3 43 14 3d
       0.08767443 -0.005002434 0.031886447 0.036197554
000280 1b 9b 27 bd 8d f8 1b bd b2 38 86 bd 31 25 ab bd
       -0.040919404 -0.038078833 -0.065537825 -0.08356703
000290 ee 4e 7f bd df 3d 7c 3d b7 1a d6 3d 41 f4 82 3d
       -0.062331133 0.061582442 0.10454314 0.06394244
0002a0 e6 a8 c1 bc 58 fd 51 bd 4d 7f 3b bd e8 03 bf bd
       -0.023640107 -0.051266998 -0.0457757 -0.09326917
0002b0 fb c1 67 3d aa 00 97 bd 2b 93 93 3b a4 13 82 bd
       0.05658148 -0.073731735 0.004503628 -0.063514024
0002c0 2a e2 d9 3d 5f 2a 9b bd 6a 2c b6 3d d1 49 af bd
       0.106388405 -0.07576441 0.0889519 -0.08559001
0002d0 0a c5 f1 bc c7 06 c9 bc 8b 61 c0 3d 2b 51 88 bd
       -0.0295129 -0.024539365 0.09393605 -0.066561066
0002e0 1c 20 91 bd 28 d6 76 3d c9 e9 bf bd ed 48 20 bc
       -0.070862025 0.06026283 -0.09370763 -0.009783012
0002f0 e5 1d bf bd fe 12 90 3d b8 ae 3f bd 81 ad 82 bd
       -0.09331874 0.070348725 -0.046797484 -0.063807495
000300 b4 1f 9e 3c 15 f6 98 bd bf e1 32 3c 13 3d fa 3d
       0.019302227 -0.074688114 0.01091808 0.1221868
000310 3b d2 32 3d 3c 9f 8f bc e2 33 71 bd ad 08 da 3d
       0.043657523 -0.017531984 -0.05888737 0.10646186
000320 90 a8 84 3d 9b aa 23 bd b8 02 af bd 7e 99 62 bd
       0.06477463 -0.039957624 -0.085454404 -0.055322163
000330 55 d2 94 3b d8 09 a8 3c d9 0b b5 bc f0 25 7c 3d
       0.004541675 0.020512506 -0.022100376 0.061559618
000340 45 11 b5 bb dd 6a d9 3c 2b 3f 95 3d ea 43 10 3d
       -0.0055257403 0.026540214 0.07287439 0.035221018
000350 6c c1 03 bd b8 03 9c bd 02 04 35 bc 8d 1e 6a 3c
       -0.032166883 -0.07617897 -0.011048319 0.01428951
000360 12 76 8e 3d 02 de 98 bd 2f d3 9e bc 09 ca c1 bd
       0.06956114 -0.0746422 -0.01938781 -0.09462363
000370 87 ee 59 bd cf c2 bc bc 49 4e 53 3d ac e3 26 bd
       -0.053205993 -0.02304211 0.05158833 -0.04074447
000380 8e f1 a6 3c 99 7d a2 3d e1 a2 f3 bd 2e 5a 54 3d
       0.020378854 0.07934112 -0.11896301 0.051843815
000390 1f 76 01 bc 9f a6 13 bd dd a1 aa 3d 47 10 b8 3d
       -0.007901697 -0.036047574 0.08331654 0.0898748
0003a0 75 2c 7b bc 33 f4 c4 3d 8e 37 7b bd 79 a7 93 bd
       -0.015330424 0.0961689 -0.061332278 -0.07209677
0003b0 7f 31 72 3d 10 7e 84 3d f1 87 bc 3d c2 a0 98 3d
       0.059129234 0.06469357 0.09205616 0.07452537
0003c0 57 38 79 bd 58 40 32 bb e4 68 3a bc 2d 94 b9 bd
       -0.060844745 -0.0027198996 -0.011377547 -0.090614654
0003d0 4a 76 b4 bc fb d8 16 3d 59 cb 45 3d 6f 75 ce 3b
       -0.02202906 0.036828022 0.04828963 0.0063006203
0003e0 54 85 c8 bd f0 2a ba 3d 06 6c 22 3c 6c dc b0 3c
       -0.09791055 0.09090221 0.00991345 0.02158948
0003f0 57 04 5f bd fe 98 c2 bd ff 47 fe 3d be f6 91 3d
       -0.0544475 -0.09501837 0.12416076 0.071271405

lstm.weight_hh_l1 f4 [400, 100]
000000 c1 99 9a bc 52 94 9c 3d c4 ac c4 3c ec 7d 1a 3d
       -0.018872144 0.07645477 0.024008162 0.037717745
000010 43 42 9d bc db 45 68 3d 42 52 ec bb 6c 57 49 bc
       -0.019196635 0.056707244 -0.0072119543 -0.012288909
000020 44 bb a7 3d c2 bc be bd 09 3a 32 bc 33 73 a2 bd
       0.08190015 -0.093133464 -0.0108780945 -0.07932129
000030 d2 47 87 3d 07 11 ba 3d 26 f9 b1 bd ce 04 36 3d
       0.066054955 0.09085279 -0.086900994 0.044438176
000040 b4 96 8e 3c 3e 09 8c 3d 24 f7 8d 3a 1f 3d e0 3c
       0.017405845 0.068377 0.00108311 0.027372895
000050 2b d3 b7 bc 87 85 c2 bc 9b 9b 35 3c 64 27 19 bc
       -0.02243956 -0.023745311 0.0110844625 -0.00934777
000060 b6 a3 15 bd c6 29 37 3d 63 10 e4 bc 92 27 fe 3b
       -0.03653308 0.044717573 -0.027839845 0.007756182
000070 83 ba 96 bd 50 55 a7 3d b1 41 45 bd b5 1d 07 3a
       -0.07359793 0.08170569 -0.04815835 0.0005154268
000080 74 39 97 3d d5 64 35 bd 19 dc 34 bd c1 42 91 bd
       0.07384005 -0.044285614 -0.044155214 -0.070928104
000090 e7 79 72 3d 9e ed fa bc 2d 8f 7b bd 9a 66 38 bc
       0.059198286 -0.030630883 -0.06141584 -0.011254931
0000a0 a0 5d 74 3d ae bf 3d 3b 45 a2 6a bd 26 9c 3a bd
       0.0596596 0.0028953361 -0.05728366 -0.04555907
0000b0 fa b5 9b 3d b5 f8 9b bd e9 49 cb bd cc e1 54 3d
       0.07603069 -0.076157965 -0.099262066 0.05197315
0000c0 34 fc a3 3d 56 ba ec bb 13 58 93 3d 5c ac f4 3c
       0.08007088 -0.0072243614 0.07194533 0.029867344
0000d0 08 05 33 3d 8e 12 d0 bc c6 a7 04 3d df da 98 3d
       0.04370597 -0.025399473 0.032386564 0.07463621
0000e0 0c 93 87 bd 62 b4 89 bd 3f 1c 92 bc 37 04 75 3c
       -0.06619844 -0.067238584 -0.017835734 0.014954618
0000f0 7b 67 ae 3d 2c da b0 bd 49 2e da 3c c0 f5 5b bb
       0.08515831 -0.08635363 0.026633399 -0.0033563226
000100 46 c3 86 bd 24 36 a1 bc 1c 2d ac 3d 7a 15 69 bc
       -0.06580214 -0.019679137 0.084070414 -0.014226312
000110 22 87 0f 3d d3 36 80 3d 2a a5 ac 38 6d c9 4e bc
       0.035040982 0.06260457 8.232363e-05 -0.012621266
000120 45 d9 dc bd 17 98 4b 3d 5c 24 3e 3d b2 c5 30 3d
       -0.107836284 0.04970559 0.046421394 0.043157287
000130 b2 68 b8 3d 33 9a 1d bd f4 1d 9f bd 48 6e 62 bd
       0.09004344 -0.038477134 -0.07769385 -0.055280954
000140 3c 71 c1 3d 39 e7 1b 3d 9d a8 04 3d a5 8e 0a bd
       0.09445426 0.038062308 0.032387365 -0.033827443
000150 ca c2 26 bd aa 30 cc 3d a0 59 40 bd 97 cd 0f bd
       -0.04071311 0.099702194 -0.046960473 -0.035108175
000160 ed 5c ae 3a 25 67 8a 3c 82 1b c9 3c 12 5f 78 3d
       0.001330284 0.016894886 0.02454925 0.06063754
000170 af cb a6 3c ab 85 01 bb 58 4e db 3c f9 af 09 3d
       0.020360796 -0.001976351 0.026770756 0.033615086
000180 43 a9 e4 bd 89 d2 c5 3d 6d 31 2e 3c 54 24 bb 3d
       -0.111650966 0.09659297 0.010631901 0.091377884
000190 34 be ef bc f9 29 ed bc ae d7 9a bb ec 88 57 ba
       -0.0292655 -0.028950678 -0.004725418 -0.0008222002
0001a0 e0 02 98 3d 91 f1 66 3d a1 34 36 bd 21 0b 6b bd
       0.07422423 0.05638272 -0.044483785 -0.05738366
0001b0 8b 93 8c 3c 96 81 fd bc 26 e1 d1 3b c1 99 f7 bc
       0.017160198 -0.03094558 0.0064050136 -0.030224683
0001c0 80 84 31 bd 5f 21 4d 3d fe ba a5 bd 8a fb be 3d
       -0.043339252 0.050080653 -0.080923066 0.09325321
0001d0 23 f5 77 bd eb 45 95 bd 11 91 44 3d a1 fd bd bd
       -0.060536515 -0.072887264 0.04798991 -0.092768915
0001e0 0b 7d 6d bd ea a9 68 bb 08 cd 95 bd 25 4b 3a 3d
       -0.05798058 -0.0035501667 -0.07314497 0.04548182
0001f0 10 d8 70 bd 0b de 9d 3d 68 7f 9c bd ad 18 b3 3d
       -0.058799803 0.07708367 -0.07641488 0.08744941
000200 d3 4f 2a bd 8c e8 81 bd 0d c6 92 bb d4 ce cd 3c
       -0.041580033 -0.06343183 -0.004479176 0.025123037
000210 da 15 73 bd 27 ca a0 bd 25 98 76 bd 85 49 79 3d
       -0.05934701 -0.078510575 -0.06020369 0.06086113
000220 9e 78 79 3c d4 51 95 bd 0a f8 60 3d da aa 81 bd
       0.015226511 -0.07290998 0.05492405 -0.063314155
000230 0c 23 77 3d ab 7f 06 3d 11 a7 81 bd 89 fa 25 bd
       0.060336158 0.032836597 -0.063306935 -0.040522132
000240 0a 34 a9 bd 8b 81 b3 bd c1 e6 16 3d fb 5c 89 3d
       -0.08261879 -0.08764943 0.036841158 0.06707188
000250 1b a4 8e bc 00 e0 e6 bc 92 83 8e 3d 43 80 9b 3d
       -0.017412236 -0.028182983 0.06958689 0.07592823
000260 6e f2 52 bb 34 67 06 3e ef 6f 82 3d 8b c3 ac bd
       -0.0032187956 0.13125306 0.06369006 -0.08435734
000270 c1 93 ca bd ef 8e e4 3d 90 5f c5 bc 9d df ab bc
       -0.09891463 0.11160075 -0.02409342 -0.02098065
000280 89 12 44 bd 96 35 95 3d 00 57 c7 3b f3 f3 a7 bd
       -0.04786924 0.07285611 0.0060833693 -0.082008265
000290 1c ae 84 3a 42 05 8c 3c ff 74 86 bc 85 df cf 3d
       0.001012269 0.01709235 -0.01641321 0.10150055
0002a0 95 f6 80 3c a4 c3 6d bd 82 c9 bc bd 8c 18 d1 3d
       0.01574258 -0.058047906 -0.09218122 0.1020976
0002b0 cc 61 82 bc 8f ba 3a 3d cb 46 55 bc 9c 7a ca 3d
       -0.015915774 0.045588072 -0.013017367 0.09886667
0002c0 41 27 cd bd da 39 2c 3c c0 3d d4 3d eb c8 cb 3d
       -0.10017253 0.01051184 0.103633404 0.099504314
0002d0 52 ed 92 bc 66 35 e3 3b 7c 1c e5 3d 3d 13 71 3a
       -0.017935429 0.006933856 0.111870736 0.0009196287
0002e0 d7 14 bc bd 9e e0 8c bd 29 65 45 3d a3 8b b7 3d
       -0.091836624 -0.0687878 0.048192177 0.089621805
0002f0 9f f3 c4 3a 51 1f 32 3d fd 83 96 3d e8 65 c5 bd
       0.0015026218 0.043486897 0.073493935 -0.09638578
000300 21 d8 15 bd 47 0c d8 3d bc 91 ba bc 03 14 db 3b
       -0.03658307 0.10549217 -0.02277457 0.006685735
000310 e4 0c fe bc d7 a6 78 3c be 67 72 bd 66 51 fb 3d
       -0.031012006 0.0151764965 -0.059180968 0.12271385
000320 21 a7 35 bd 9d 52 ad bd af 9d b9 bd 68 b9 e7 bb
       -0.04434884 -0.08463023 -0.09063279 -0.0070716627
000330 22 66 44 bc 51 3c 48 bd 48 4c 4a 3c e5 97 8e bd
       -0.011987241 -0.048885647 0.012347288 -0.06962565
000340 29 e7 e1 bc e6 a1 cd bc ef 38 80 3d 93 fa 83 3d
       -0.027576046 -0.025101613 0.06260859 0.064442776
000350 fb cd 6c 3d ea 41 9c 3d 4b 9a c4 bd 7f ad 5e bd
       0.057813626 0.076297596 -0.095997415 -0.054364678
000360 c5 6a 34 bd 9d 74 cc 3d f8 03 8c bd 2b e4 19 bd
       -0.044047136 0.0998318 -0.068366945 -0.037571114
000370 02 ea 87 3d 3a 92 a0 bd 5d 4c 20 bb ea 5d ae 3d
       0.0663643 -0.078403905 -0.0024459579 0.085140064
000380 5d 7c 94 3d 82 bc e2 3c f4 18 e2 bc 0d a3 71 bd
       0.07250283 0.027677778 -0.02759979 -0.058993388
000390 5c dd 44 bc ea 6a 87 3d 06 1a 98 bd a2 bb d2 bd
       -0.012015667 0.06612189 -0.074268386 -0.10289694
0003a0 a9 6d b2 3d 0e 44 a4 3d 95 eb a4 3d 78 f8 35 3c
       0.08712322 0.08020793 0.08052746 0.011106603
0003b0 57 cc 0f bc 7e 5f 1f bb e4 04 d4 3d 04 35 3e 3d
       -0.008776746 -0.0024318392 0.10352495 0.04643728
0003c0 d0 66 9b 3c 38 c4 1e bc c3 af 10 bc 04 ca 28 3d
       0.018969923 -0.009690337 -0.008830967 0.041208282
0003d0 53 eb 06 3d c5 c0 17 3c 1c de c2 3d 45 a8 2f bd
       0.032939266 0.009262268 0.0951502 -0.042885084
0003e0 93 8f da 3d dd cb d1 3d 01 19 75 bd e9 cc 91 bc
       0.10671916 0.10243962 -0.0598383 -0.017797904
0003f0 be 14 79 3c 17 13 be bc d5 66 d8 3d 47 7e f4 bb
       0.015202699 -0.023202462 0.10566489 -0.0074613425

lstm.bias_ih_l1 f4 [400]
000000 12 f6 af bd 72 16 a6 bd 6c 0b c7 bd 77 bf 61 bd
       -0.08591856 -0.0810975 -0.097189754 -0.055114236
000010 8a 28 22 3d d0 0e 17 3c 56 d5 ba 3d 26 4e 2f 3d
       0.039589442 0.00921984 0.09122722 0.042799138
000020 fa b1 b3 3d d1 a5 a5 bd 75 9d 68 3d 96 8c 66 3d
       0.08774181 -0.080882676 0.056790788 0.056286417
000030 a1 99 07 3d e1 40 aa 3c 24 ad 5d 3d 09 66 29 3c
       0.033105496 0.02078289 0.054120198 0.0103392685
000040 ab 1f 4c bd f9 75 8b bc 6c 12 e7 3d 0e d9 6c 3c
       -0.04983489 -0.017024027 0.112828106 0.014456047
000050 f1 8b 97 bd 30 51 2d bb ef 85 23 bd 0f b1 8e 3d
       -0.073997386 -0.0026446097 -0.03992265 0.06967365
000060 f0 02 e8 bc 94 0b 8d bc b3 64 c7 3c 17 b0 4e 3d
       -0.028321713 -0.017217435 0.02434001 0.0504609
000070 35 4a 8b 3d 52 3a f1 3d af e3 be 3d 01 bf 54 bd
       0.06801263 0.11778702 0.09320771 -0.051939968
000080 fd 52 d8 3c 55 af 3b bc 66 ec b9 bd 64 c1 2b bd
       0.02640676 -0.011455377 -0.090782925 -0.04193248
000090 98 ed c3 3d e8 99 32 3c 51 bc a0 bd d9 f0 52 bc
       0.09566802 0.010900952 -0.078484185 -0.012874805
0000a0 da d1 ea 3b c9 1e 7d 3d c7 84 2f bd 5d d0 91 bd
       0.0071661295 0.061796937 -0.042851236 -0.0711982
0000b0 0e 73 56 3d 64 06 91 3d 7b 8f 64 3d dc f2 4a bb
       0.05235582 0.07081297 0.055800896 -0.003096751
0000c0 55 48 50 bd 4c c2 a0 3c a5 93 1e bd 3e 6b b8 3d
       -0.05085023 0.019623898 -0.038715024 0.0900483
0000d0 0b 80 9e 3c af f7 87 3d 7e d7 08 3e af 8d 52 bd
       0.019348165 0.06639039 0.13363454 -0.05140465
0000e0 fc de a7 bd 25 34 8b 3d 76 9e a0 3d 9f 26 7d bd
       -0.08196828 0.06797055 0.07842724 -0.06180441
0000f0 e3 23 a3 bc 33 c3 7e bc c9 47 eb 3c fb d0 78 bd
       -0.019914573 -0.015549469 0.028720753 -0.060746174
000100 5b 60 92 3c 5a 4f 67 bc 3e a2 dc bd 76 83 01 bd
       0.017868211 -0.01411804 -0.10773133 -0.03161951
000110 0d b2 09 3d 98 b9 59 3c a5 c8 ab b9 06 a7 c1 bc
       0.033617068 0.013288878 -0.00032765153 -0.023639213
000120 d3 33 db 3c 6c 17 1e 3d 63 82 77 3c a0 5b aa 3d
       0.02675811 0.038596556 0.01510677 0.08318257
000130 bf 81 a7 bd 23 b2 91 3d 68 4f c2 3d ba ea ad bd
       -0.08179044 0.07114055 0.09487802 -0.08492036
000140 ab 19 63 bd 80 e9 45 3d 90 ef d1 3d 17 1d 26 3c
       -0.0554444 0.048318386 0.10250771 0.0101387715
000150 ec 31 01 bd 1a 1b fc bc 98 42 9c bc 3c 32 1d 3d
       -0.03154175 -0.030774642 -0.019074723 0.038377985
000160 1c 75 cd 3c 87 cf d8 3d 4b 63 a1 bd 0d 4d 9b bd
       0.025080256 0.10586458 -0.07880267 -0.07583056
000170 b6 1f ab bd bf 33 b0 bd 71 d8 28 3b 05 2c 32 3d
       -0.08355658 -0.0860362 0.0025763775 0.04349901
000180 4f db a4 bc bd 56 8f 3d 7e 8d 94 bd c8 c9 c9 bb
       -0.020124106 0.06998966 -0.0725355 -0.0061580874
000190 ee ad 16 bc 58 36 a9 3d 26 8f 0b 3d 21 4a b1 3d
       -0.0091967415 0.082623184 0.034072064 0.08656717
0001a0 02 71 27 bd d0 d3 93 bd e1 ff d6 bd 49 d7 9c 3c
       -0.040879257 -0.072181344 -0.10498024 0.019145625
0001b0 7a 22 dc 3c be bd b0 ba 1f 3b 70 3d 3c bd d7 3b
       0.026871908 -0.0013484282 0.058650132 0.006583838
0001c0 37 7c 67 3d 37 bf 09 3a 3b 38 33 bd f5 6d 9c 3d
       0.056514945 0.00052546285 -0.043754797 0.0763816
0001d0 5d fc 54 3d a2 68 1f bd 75 66 50 3d be c1 69 3c
       0.051998485 -0.038918145 0.05087896 0.014267383
0001e0 27 80 b2 bc fe 82 3a 3c 23 67 a8 3d 6c 18 89 bd
       -0.021789623 0.01138377 0.08222797 -0.06694111
0001f0 2e 4d 10 3d 80 87 90 3d 54 8a 62 3d ff 14 b5 3d
       0.035229854 0.070570946 0.0553077 0.08841895
000200 1c 67 84 bd 50 4d a1 3c bd 81 24 ba 16 07 2b bd
       -0.06464979 0.019690186 -0.0006275436 -0.041754805
000210 23 d1 35 bd 27 b0 cf 3d 9d 92 32 bd a5 25 56 3c
       -0.0443889 0.1014102 -0.043596853 0.013070499
000220 d7 db c4 bd 03 26 ad bd 05 c3 79 3c 3e 35 4d 3d
       -0.096122436 -0.08454516 0.01524425 0.050099604
000230 b5 82 d7 bb 39 c6 9c bd 71 3b 16 bc 8e 5a 19 bd
       -0.006576861 -0.076549955 -0.009169445 -0.037439875
000240 b2 0f f0 3c b6 94 a7 bd 2c 8a 6d 3d c9 92 2a bd
       0.02930436 -0.08182661 0.0579931 -0.04164389
000250 63 97 21 bd a3 7f d4 bc 93 38 cd bd 4e c8 46 3d
       -0.039451014 -0.025939768 -0.10020556 0.04853087
000260 da 32 56 bd 6b 21 d2 bd 71 73 da bd 93 fd 72 bd
       -0.05229459 -0.1026028 -0.1066655 -0.05932386
000270 06 15 eb bc 94 bd 08 bd 3a f3 12 3d 67 0c 54 bd
       -0.028696548 -0.03338392 0.03587649 -0.05176964
000280 b8 0a c8 bd cd 30 89 3d 33 41 06 bd d1 29 bc bd
       -0.097676694 0.06698761 -0.032777023 -0.09187663
000290 b4 0d ed bd 01 d6 a6 bd f0 97 99 bd b8 52 45 3d
       -0.11574879 -0.08146287 -0.07499683 0.04817459
0002a0 b9 7f aa 3d eb b9 dd bd 4c 5e 8d bc 69 e0 61 bd
       0.083251424 -0.10826477 -0.017256878 -0.055145655
0002b0 a9 ff ac 3d 37 f2 ac bc a2 55 f7 3a 32 6d 00 3c
       0.08447201 -0.02111159 0.0018870125 0.007838534
0002c0 d9 45 bc bc 9e ef 32 3d bf 29 ab bd c9 b8 05 bd
       -0.022982525 0.043685548 -0.08357572 -0.032646928
0002d0 66 0c 33 bd 6b 0d 02 3d 1d 3b 9f bd 1b 8b a4 3d
       -0.043712996 0.031751078 -0.07774947 0.08034345
0002e0 c9 84 2d 3d 48 0f 88 3c 83 f5 13 bc 0d 33 4d bd
       0.042362962 0.01660885 -0.0090307025 -0.050097514
0002f0 ae 08 ab bd aa 1e 97 bd d9 35 89 3c 17 32 91 bd
       -0.08351265 -0.073788956 0.01674931 -0.07089632
000300 2d b5 cc 3a aa 3f 39 3d 33 88 d8 bd c8 20 b7 bd
       0.001561796 0.04522673 -0.10572853 -0.089417994
000310 52 7d 92 3d 70 a7 3e 3d a8 3f 65 bd 96 69 77 bd
       0.07152809 0.0465464 -0.05596891 -0.06040343
000320 55 4e c5 3b fe 04 e8 3b 10 d7 84 bd d3 72 c0 3c
       0.006021301 0.0070806732 -0.064863324 0.023492252
000330 d2 bf b2 3d d8 b7 74 bd 71 11 a9 3c 25 ba 04 bd
       0.08727993 -0.05974564 0.0206382 -0.032404084
000340 f2 29 34 bd db df b4 bd 46 6c 97 bb b9 6b 8b bd
       -0.043985315 -0.088317595 -0.0046210615 -0.06807656
000350 d3 df 48 3d 17 56 3b 3d dc 17 a0 3d 02 42 5b bb
       0.04904158 0.0457364 0.07817051 -0.0033456092
000360 58 aa 5f bd d4 a2 3e 3d 0a 32 44 bd 3e 77 42 3c
       -0.05460581 0.046542004 -0.047899283 0.01186925
000370 f9 04 ae 3d a9 40 f7 3c 10 06 86 3c fe 8d d2 bc
       0.08497042 0.0301822 0.016360313 -0.025702473
000380 76 db bd bc ca 90 8f bc 8a 9f 80 3d 7c 19 9b bd
       -0.023175936 -0.017525095 0.0628043 -0.0757322
000390 b4 40 26 3d 21 62 b4 bd 5b f5 62 3d 13 34 ea bc
       0.04058905 -0.08807779 0.05540977 -0.028589284
0003a0 3a a3 84 bc ad 6a c9 bc 81 39 25 3d 6d 6f 29 bc
       -0.016191114 -0.024587 0.040338043 -0.010341507
0003b0 a4 45 96 3d 5b 93 6f bd 80 2a ba bd b3 3c 27 bd
       0.07337502 -0.05849014 -0.090901375 -0.04082937
0003c0 6d 39 4d 3d 57 d7 cb 3c 3c 2c 94 bd fd 7a af bd
       0.050103594 0.024882955 -0.072349995 -0.0856838
0003d0 2c b0 9d bd 92 4c 7f bd 03 4e 91 bd fc 8c a0 3d
       -0.07699618 -0.062328883 -0.07094958 0.07839391
0003e0 37 12 cb bd a8 b9 59 bd e0 76 c0 bd 2b 3a 1a 3d
       -0.099155836 -0.05315557 -0.093976736 0.03765313
0003f0 d3 a8 fe bc 8f ae 04 3d 55 fb cb bc c6 ab a4 bd
       -0.031086361 0.032393035 -0.024900118 -0.08040576
