Drift_detection/bt_main/lstm_model.pth (torch, 51494 bytes, 5 tensors)

lstm.weight_ih_l0 f4 [200, 9]
0.09996442 -0.001059187 0.0023112062 0.045954395 0.16748291 0.15931654 0.1189885 0.05361528
-0.023838742 0.084165156 -0.0029829151 0.036729816 -0.06974016 -0.05424658 0.14795369 0.1628512
-0.0035207763 0.045572463 0.010366895 0.11525088 -0.07701298 0.06551266 0.04246907 -0.025561055
0.027480226 0.08413466 -0.0843756 -0.03927179 -0.12188202 -0.09217068 0.08713892 0.09691995
0.063020885 -0.088400505 -0.07158074 0.08188025 0.07413475 0.116501085 -0.05346341 0.046895195
0.01935907 -0.0028948905 -0.01371876 -0.0026547497 -0.072218835 -0.08682419 -0.118851155 -0.1458966
0.116605334 -0.111163445 0.036659963 0.07683149 -0.07182547 -0.16244134 -0.09721966 0.022946842
0.059641324 0.036808945 0.029849395 0.12632546 -0.031156378 -0.08817465 0.006560222 -0.06904141
-0.1706412 -0.059797406 -0.06443406 -0.12048448 0.045225095 -0.13141195 -0.11150143 -0.03433361
0.078679845 0.15955596 -0.06578167 0.039803095 0.0068229083 0.119802356 -0.028988814 0.016984494
0.0056633106 0.10961925 0.11629881 -0.11435556 0.075958654 -0.06686192 0.13978265 -0.01172488
-0.14491625 0.008250888 -0.0054280767 0.07829954 0.113804966 0.041181143 -0.118500195 -0.024451474
-0.07976129 0.0522693 0.04834261 0.12799871 0.103065506 -0.064648 -0.05436701 0.1287684
0.13830699 0.1027827 -0.10665195 -0.08267926 -0.095322125 -0.05735228 0.11685397 0.14836021
-0.12431162 -0.08300121 0.08043866 -0.055968218 -0.06464627 -0.015129042 -0.054442745 0.019165
0.16513671 -0.120521724 -0.021529702 0.15489873 -0.12502342 0.030271592 -0.059768848 -0.0107727945
0.15882605 0.14857647 -0.02247307 0.1717971 0.24997957 0.08181107 -0.01023719 0.10731232
-0.045789674 0.11344325 0.07745061 -0.025213787 -0.0106453495 -0.04340823 -0.006573673 -0.11877341
-0.074674934 -0.16701956 -0.08830844 -0.22060598 -0.14470713 -0.11656099 0.086623475 -0.0820856
-0.048377804 -0.07515686 0.002046137 0.07848804 -0.053062662 -0.2805529 0.1054477 -0.19326422
-0.2566224 -0.1271193 0.055728618 0.004861773 0.18773301 0.13196082 -0.14210907 0.007819006
0.16102739 0.03358863 0.0053645493 0.06210852 0.05074166 0.11924039 0.18065403 0.1766073
0.10193051 0.04197984 -0.10535392 -0.10570035 -0.07456541 -0.020380804 -0.053720552 0.15306464
0.12049459 -0.05601234 0.014384475 -0.031944025 -0.11161035 -0.0762235 0.032286506 0.10779186
-0.003495986 -0.004974521 -0.021000234 0.08470291 -0.0310298 0.13765617 0.09576021 -0.13472311
0.08948808 0.09851283 -0.12069746 -0.15524133 0.07806552 0.1358023 0.034864005 0.20247051
0.010286969 0.07317729 -0.056755416 -0.03865076 0.105136536 0.121406354 0.04717434 -0.03892703
-0.03560285 0.123983964 -0.071326464 -0.05999789 -0.018384606 0.012691026 -0.03166516 -0.0152317025
-0.10465828 0.1871892 0.050378572 0.19001652 -0.053807873 0.03389121 0.21877302 0.1616278
0.13042092 -0.02445172 0.18251169 -0.042547964 0.09297897 0.16595156 0.12967463 0.13639182
0.07723907 0.015463055 0.11600629 0.058197416 0.051560998 -0.047154926 0.09240387 0.00586104
-0.09721256 -0.14995702 -0.00012033124 -0.14348385 0.00084919494 0.15377884 -0.03992033 -0.032096274
00000000: 25ba cc3d 6bd4 8aba 9b77 173b ad3a 3c3d
00000010: a480 2b3e e023 233e 3eb0 f33d b29b 5b3d
00000020: 7749 c3bc c85e ac3d 037d 43bb 0172 163d
00000030: eed3 8ebd a931 5ebd 2c81 173e 77c2 263e
00000040: d3bc 66bb 31aa 3a3d e9d9 293c a708 ec3d
00000050: fbb8 9dbd 802b 863d 0cf4 2d3d 6b65 d1bc
00000060: 361e e13c cb4e ac3d 1dcd acbd 75db 20bd
00000070: 489d f9bd fbc3 bcbd e475 b23d f77d c63d
00000080: 1811 813d 530b b5bd ec98 92bd d5b0 a73d
00000090: f6d3 973d 1f98 ee3d 73fc 5abd 2d15 403d
000000a0: ea96 9e3c 34b8 3dbb a6c4 60bc 4ffb 2dbb
000000b0: 78e7 93bd e2d0 b1bd 3c68 f3bd eb65 15be
000000c0: c7ce ee3d a9a9 e3bd c228 163d d459 9d3d
000000d0: 3b19 93bd 0657 26be 1a1b c7bd 04fb bb3c
000000e0: 764a 743d fac4 163d b886 f43c 765b 013e
000000f0: a93b ffbc e994 b4bd 21f7 d63b 9565 8dbd
00000100: 91bc 2ebe 20ee 74bd 01f6 83bd 91c0 f6bd
00000110: f33d 393d db90 06be dd5a e4bd 66a1 0cbd
00000120: e622 a13d a362 233e 8ab8 86bd 9208 233d
00000130: b492 df3b f05a f53d f379 edbc 1123 8b3c
00000140: 4b93 b93b 0f80 e03d 122e ee3d 3f33 eabd
00000150: 3690 9b3d e7ee 88bd 2f23 0f3e b619 40bc
00000160: ed64 14be bc2e 073c 02de b1bb 825b a03d
00000170: 9412 e93d 8fad 283d 3bb0 f2bd 754e c8bc
00000180: e359 a3bd 5518 563d e702 463d 1812 033e
00000190: 0214 d33d 2c66 84bd f1af 5ebd dddb 033e
000001a0: 59a0 0d3e bc7f d23d 566c dabd be53 a9bd
000001b0: 3f38 c3bd 39ea 6abd 2251 ef3d bdeb 173e
000001c0: 1797 febd 8afc a9bd 06bd a43d ee3e 65bd
000001d0: 4365 84bd cddf 77bc 5bff 5ebd ebff 9c3c
000001e0: 9919 293e 18d4 f6bd 0f5f b0bc c69d 1e3e
000001f0: 2406 00be 21fc f73c 2ed0 74bd 6080 30bc
00000200: 4ca3 223e 6e24 183e 7219 b8bc 94eb 2f3e
00000210: a5fa 7f3e 908c a73d e3b9 27bc 90c6 db3d
00000220: f48d 3bbd ef54 e83d 6d9e 9e3d 258d cebc
00000230: d569 2ebc d4cc 31bd f767 d7bb 793f f3bd
00000240: 2cef 98bd 2d07 2bbe 0edb b4bd 89e6 61be
00000250: 1b2e 14be 87b7 eebd a667 b13d 7f1c a8bd
00000260: ce27 46bd d7eb 99bd 7b18 063b 56be a03d
00000270: 3c58 59bd a1a4 8fbe f7f4 d73d 0ee7 45be
00000280: 0364 83be 902b 02be b143 643d 824f 9f3b
00000290: 153d 403e bd20 073e 0a85 11be 4a1b 003c
000002a0: 5de4 243e 3b94 093d 1ac9 af3b 8165 7e3d
000002b0: 7dd6 4f3d 4e34 f43d 5ffd 383e 8bd8 343e
000002c0: f1c0 d03d 0df3 2b3d ccc3 d7bd 6d79 d8bd
000002d0: c0b5 98bd a5f5 a6bc 150a 5cbd fabc 1c3e
000002e0: dec5 f63d 326d 65bd dcac 6b3c bdd7 02bd
000002f0: f893 e4bd 111b 9cbd db3e 043d fbc1 dc3d
00000300: ea1c 65bb 4f01 a3bb af08 acbc b878 ad3d
00000310: 3532 febc bdf5 0c3e ee1d c43d dbf4 09be
00000320: 8745 b73d 18c1 c93d 3b30 f7bd 95f7 1ebe
00000330: d1e0 9f3d c20f 0b3e 8fcd 0e3d 6e54 4f3e
00000340: ad8a 283c fadd 953d 5e78 68bd 4250 1ebd
00000350: d351 d73d e5a3 f83d e139 413d f371 1fbd
00000360: 4bd4 11bd 4eeb fd3d 9c13 92bd 59c0 75bd
00000370: 509b 96bc 05ee 4f3c 54b3 01bd 648e 79bc
00000380: 1557 d6bd 87ae 3f3e c359 4e3d b193 423e
00000390: a565 5cbd 82d1 0a3d 0906 603e c281 253e
000003a0: 108d 053e f94e c8bc 58e4 3a3e c646 2ebd
000003b0: c26b be3d 35ef 293e 6dc9 043e 4caa 0b3e
000003c0: 842f 9e3d c158 7d3c b594 ed3d 6a60 6e3d
000003d0: a031 533d 8625 41bd 3d3e bd3d f80d c03b
000003e0: 6117 c7bd 558e 19be 585a fcb8 6eed 12be
000003f0: 829c 5e3a 3378 1d3e 8083 23bd 6277 03bd

lstm.weight_hh_l0 f4 [200, 50]
-0.07341416 -0.09630609 0.1176561 0.004798907 0.13358767 -0.06677308 -0.055696867 -0.093106434
-0.00839173 -0.046194613 -0.10400984 -0.11216638 0.09797141 0.07216859 0.040006477 -0.075103045
0.09431133 -0.14532463 -0.09424313 -0.16430475 0.0020956283 0.14620371 0.029798998 0.054653235
-0.16105686 0.062265277 0.12283794 -0.023998799 -0.002875373 0.04511554 0.0071058418 -0.06472434
0.03396746 0.035600375 0.11395239 0.027365273 0.04953117 0.03598562 -0.066170506 -0.150021
-0.15863754 0.09249044 -0.09880532 -0.008584809 0.078096986 0.046478976 0.091670506 0.058550414
0.08832482 -0.050074782 0.01983327 0.054147203 0.09168795 0.11033265 -0.047825173 0.008332754
-0.14883035 -0.038256586 -0.058448732 -0.11460339 -0.09932067 0.10388335 -0.072135575 0.10987327
0.07160844 -0.010953868 -0.1467834 -0.06598271 -0.01782039 0.021530546 -0.087714165 -0.004806733
-0.069609664 0.043423884 0.033420753 0.09033167 0.056384556 -0.09496094 0.022093443 0.05616425
0.04194665 0.14411865 -0.08165184 0.076686524 -0.05892949 0.06525242 -0.097102 0.010191507
-0.09223413 0.12964743 -0.06310514 0.088938184 -0.05891566 0.14690414 0.10440836 -0.0861708
0.14356624 0.039357916 -0.04599929 0.07262636 0.039997295 -0.052277613 0.07442552 -0.026585916
-0.10339596 -0.14965713 0.13891064 -0.11269901 0.10314184 0.12529147 -0.078778036 0.07622963
0.122446015 0.13603653 0.071180895 0.05407326 0.07325314 -0.0036874425 -0.091811456 -0.0927604
-0.030170782 0.025075527 0.14962624 -0.06840727 0.02241013 -0.100074835 -0.146724 0.09943774
0.07124144 -0.1397748 0.028315531 -0.10426734 0.09377203 0.10510562 0.07491703 -0.117120884
-0.04929461 -0.0063670506 -0.10362129 0.11630846 -0.012262112 0.095673606 -0.008541875 0.051127195
-0.12665182 -0.0331573 0.07711401 0.11187161 0.09176091 0.11607331 -0.04605761 0.08079303
0.103663415 -0.1320829 -0.05008467 0.18691742 0.004759976 -0.02651457 0.023639098 0.008352305
0.06723294 0.15743655 0.07135489 -0.2210669 -0.03439054 0.11412912 0.01875793 -0.057613827
-0.03480745 0.02079624 0.18723333 0.15584823 -0.096362785 -0.021782428 -0.18383545 -0.16368255
0.15497434 -0.07477373 0.02053593 0.0045569786 -0.01828237 0.033247177 -0.05410165 -0.06619125
-0.094940476 0.16895252 0.15019827 0.029616203 -0.00015270385 0.13937558 -0.04204076 0.07498836
-0.03936494 -0.04743984 -0.38749054 0.11761255 -0.044296797 -0.006635288 0.039438047 0.016102463
-0.08075206 -0.025155894 -0.04950139 -0.03651067 -0.0595323 0.11873936 0.08807146 -0.09746167
0.11675051 0.08473575 -0.03532307 -0.07764397 0.00040777196 0.043042805 -0.032209832 -0.014496686
0.15348448 -0.091449484 0.07783769 -0.13211793 0.05853203 0.112677746 0.06708853 -0.034533188
0.10458659 0.08452248 -0.024764951 -0.085730776 0.05151082 0.045095555 -0.0064379093 -0.10037641
0.11055024 -0.1158887 0.1552711 -0.04465896 0.09749442 0.07647119 -0.0823249 -0.035942744
-0.13842186 0.03772401 0.11123301 0.007924009 -0.10712738 0.06530017 -0.09482612 0.03833329
0.10820863 0.0631376 -0.008239067 -0.007702792 0.07372495 -0.11449284 -0.051740065 0.056365263
00000000: 2a5a 96bd 213c c5bd aef5 f03d 2640 9d3b
00000010: 35cb 083e 53c0 88bd 6622 64bd 96ae bebd
00000020: 777d 09bc 9036 3dbd 1c03 d5bd 7db7 e5bd
00000030: 3ca5 c83d 20cd 933d d5dd 233d a0cf 99bd
00000040: 4c26 c13d fbcf 14be 8b02 c1bd 813f 28be
00000050: cf56 093b 6db6 153e 071d f43c 12dc 5f3d
00000060: 17ec 24be e009 7f3d 7592 fb3d 2199 c4bc
00000070: c170 3cbb 13cb 383d 1fd8 e83b 328e 84bd
00000080: 7721 0b3d b3d1 113d df5f e93d 232d e03c
00000090: 32e1 4a3d a865 133d 6784 87bd 1b9f 19be
000000a0: e171 22be a16b bd3d 725a cabd 4ca7 0cbc
000000b0: 50f1 9f3d bd60 3e3d bfbd bb3d 8fd2 6f3d
000000c0: a5e3 b43d 371b 4dbd 6279 a23c 75c9 5d3d
000000d0: e4c6 bb3d 16f6 e13d 54e4 43bd 1a86 083c
000000e0: fc66 18be f0b2 1cbd f067 6fbd 2fb5 eabd
000000f0: a368 cbbd cbc0 d43d d1bb 93bd 3d05 e13d
00000100: 72a7 923d da77 33bc 634e 16be f121 87bd
00000110: 11fc 91bc d460 b03c 7ca3 b3bd cd81 9dbb
00000120: 838f 8ebd 3edd 313d 33e4 083d d0ff b83d
00000130: 7ef3 663d e27a c2bd 4ffd b43c 7c0c 663d
00000140: 40d0 2b3d d793 133e 1439 a7bd d30d 9d3d
00000150: 0d60 71bd 10a3 853d 6add c6bd 47fa 263c
00000160: 3fe5 bcbd 4cc2 043e 453d 81bd 3925 b63d
00000170: 8c51 71bd 0a6e 163e 0dd4 d53d 517a b0bd
00000180: 0703 133e c435 213d c069 3cbd 21bd 943d
00000190: 34d4 233d 0d21 56bd 686c 983d b5ca d9bc
000001a0: 43c1 d3bd b83f 19be 973e 0e3e bdce e6bd
000001b0: 073c d33d 684c 003e 6156 a1bd 481e 9c3d
000001c0: fac4 fa3d 294d 0b3e 4ac7 913d ec7b 5d3d
000001d0: be05 963d 05a9 71bb a507 bcbd 2af9 bdbd
000001e0: b728 f7bc 316b cd3c 9f37 193e 1c19 8cbd
000001f0: 7395 b73c 09f4 ccbd d13e 16be 04a6 cb3d
00000200: 08e7 913d 2021 0fbe f9f5 e73c 1d8a d5bd
00000210: 8d0b c03d 9e41 d73d 1a6e 993d 13dd efbd
00000220: 25e9 49bd b1a2 d0bb 6637 d4bd 2133 ee3d
00000230: 07e7 48bc 86f0 c33d 38f3 0bbc c06a 513d
00000240: 04b1 01be f3cf 07bd f3ed 9d3d f11c e53d
00000250: 25ed bb3d d8b7 ed3d e8a6 3cbd d176 a53d
00000260: 7c4d d43d bd40 07be 9525 4dbd 4867 3f3e
00000270: 93f9 9b3b 1535 d9bc c8a6 c13c 1bd8 083c
00000280: 6cb1 893d 0c37 213e 8322 923d 5d5f 62be
00000290: 18dd 0cbd 87bc e93d 3baa 993c 7afc 6bbd
000002a0: 4292 0ebd e05c aa3c 18ba 3f3e ae96 1f3e
000002b0: da59 c5bd 1071 b2bc 5c3f 3cbe 669c 27be
000002c0: 98b1 1e3e f822 99bd f73a a83c b552 953b
000002d0: e9c4 95bc 312e 083d b199 5dbd 478f 87bd
000002e0: 2770 c2bd e401 2d3e 93cd 193e ae9d f23c
000002f0: 211f 20b9 79b8 0e3e ef32 2cbd 7f93 993d
00000300: 223d 21bd 4750 42bd 2965 c6be d9de f03d
00000310: 8f70 35bd d46c d9bb ca89 213d 50e9 833c
00000320: 5661 a5bd bc13 cebc f8c1 4abd 368c 15bd
00000330: 24d8 73bd 9f2d f33d cf5e b43d fc99 c7bd
00000340: e41a ef3d f089 ad3d ecae 10bd cd03 9fbd
00000350: 3aca d539 a74d 303d 75ee 03bd 8283 6dbc
00000360: 092b 1d3e de49 bbbd 5e69 9f3d ec49 07be
00000370: 48bf 6f3d 97c3 e63d b665 893d ac72 0dbd
00000380: 7e31 d63d 1f1a ad3d dedf cabc 9e93 afbd
00000390: 02fd 523d 1eb6 383d 19f5 d2bb 2692 cdbd
000003a0: 2a68 e23d 0e57 edbd 63ff 1e3e 50ec 36bd
000003b0: 28ab c73d ed9c 9c3d f599 a8bd b338 13bd
000003c0: 76be 0dbe 7e84 1a3d 22ce e33d b4d3 013c
000003d0: 9a65 dbbd 18bc 853d 3234 c2bd 5e03 1d3d
000003e0: 7c9c dd3d 494e 813d 27fd 06bc b467 fcbb
000003f0: 1bfd 963d 397b eabd 64ed 53bd 43df 663d

lstm.bias_ih_l0 f4 [200]
0.019315215 0.076958306 -0.13325949 0.020767745 -0.0053087506 0.07468663 0.10484002 -0.15012756
-0.103814006 0.12193783 -0.048979934 0.05946466 0.1316418 0.12854101 0.010465665 -0.11790205
0.09808796 -0.116934076 -0.11467627 0.14232609 -0.087918185 0.04503284 -0.15587898 0.16035713
-0.12766373 -0.0015069036 -0.029886352 -0.06177206 0.11728143 -0.116081655 -0.042718545 -0.029859222
-0.14877546 -0.01955865 -0.07370165 0.07254396 0.08174402 -0.020725528 0.09000375 0.020438662
-0.12958512 0.07914208 -0.06979025 0.012744704 -0.11040911 0.115248255 0.12727073 0.00462837
0.055898163 0.074019566 0.04001396 -0.0069828606 0.048488583 0.08342393 -0.048288845 -0.13292779
-0.11905017 0.004342171 0.030245345 0.093324 -0.039302327 0.0108235795 0.102191254 0.13748424
-0.030317592 0.08228731 -0.06264183 0.011446941 0.115403734 0.054004025 0.02392213 -0.044461526
0.09521665 0.069443345 0.07964453 0.076715454 -0.08859243 -0.060560215 0.145673 0.09890694
0.010078402 -0.09277227 -0.099794745 -0.045986064 -0.037879974 -0.041334886 -0.02030953 -0.092971385
0.005291856 -0.00500554 0.09731892 0.10058728 -0.034435257 0.04843932 -0.079031624 0.09969447
-0.07128512 0.05070751 -0.055198554 -0.12721871 0.125712 -0.10875 0.004235519 0.0141187925
-0.057215042 -0.070514895 -0.1264991 0.05420661 -0.024353825 0.08401524 -0.09512529 0.060690105
-0.10949622 0.09920936 -0.09953463 0.03557404 -0.011026114 -0.053049617 0.08581027 -0.08873736
0.13821878 -0.037436586 -0.03965053 0.03337686 -0.094910175 0.08567161 -0.023047926 -0.028268997
0.00068317633 0.022903847 0.0015554416 -0.0443636 -0.07468401 0.05095004 -0.068745725 0.12747899
0.06365903 0.023740366 0.110419124 -0.027708765 -0.043456364 -0.11920544 -0.11780024 0.016446764
0.025165118 0.11187489 0.09189899 -0.11089144 -0.0019671933 -0.11604691 0.17372979 -0.010201591
0.0038271255 0.023205476 0.0053680884 0.08580605 0.111788884 -0.07680353 0.083334014 -0.08808717
-0.039127856 0.10306691 -0.116097994 -0.012389105 0.16990052 -0.08510013 -0.08042214 0.10477632
-0.018645003 -0.09219482 -0.06817101 0.13881744 0.10471938 0.037381474 -0.05697945 0.091584
0.06783112 0.092049524 -0.11829353 0.12102386 0.107846454 0.012139315 0.045300256 0.002387229
0.040604588 -0.08400003 0.04137155 -0.115808226 -0.010581121 0.015904179 -0.0030954853 -0.1017204
-0.09831975 0.107737154 -0.021766795 -0.03386627 0.01747439 0.006291667 -0.053747814 0.0337476
00000000: f13a 9e3c 519c 9d3d 2d75 08be 1e21 aa3c
00000010: 07f5 adbb 4ef5 983d 5db6 d63d 0abb 19be
00000020: 709c d4bd 8aba f93d 2f9f 48bd 3791 733d
00000030: 1ccd 063e 41a0 033e 2e78 2b3c a176 f1bd
00000040: 57e2 c83d 227b efbd 64db eabd eebd 113e
00000050: 730e b4bd 5b74 383d bd9e 1fbe a934 243e
00000060: 48ba 02be 4b83 c5ba 39d4 f4bc b304 7dbd
00000070: 3f31 f03d 38bc edbd a4f9 2ebd 549b f4bc
00000080: 9858 18be 7639 a0bc e4f0 96bd ed91 943d
00000090: 6969 a73d 95c8 a9bc e353 b83d fb6e a73c
000000a0: f6b1 04be 3e15 a23d 31ee 8ebd 2acf 503c
000000b0: 2c1e e2bd 4707 ec3d 4253 023e 95a9 973b
000000c0: 79f5 643d 9297 973d aee5 233d 7bd0 e4bb
000000d0: f79b 463d 2ada aa3d 86ca 45bd 391e 08be
000000e0: 93d0 f3bd c548 8e3b 16c5 f73c a720 bf3d
000000f0: 7afb 20bd 6255 313c a649 d13d abc8 0c3e
00000100: 995c f8bc 4086 a83d 5c4a 80bd f38b 3b3c
00000110: cb58 ec3d 5333 5d3d 58f8 c33c 4a1d 36bd
00000120: f200 c33d 5038 8e3d ac1c a33d fe1c 9d3d
00000130: f36f b5bd fd0d 78bd 4e2b 153e b98f ca3d
00000140: e21f 253c 63ff bdbd 3061 ccbd e25b 3cbd
00000150: 0828 1bbd c54e 29bd 2c60 a6bc c867 bebd
00000160: 4e67 ad3b 8305 a4bb 244f c73d b400 ce3d
00000170: fc0b 0dbd 4f68 463d 55db a1bd 9d2c cc3d
00000180: effd 91bd aeb2 4f3d e117 62bd 9f45 02be
00000190: a6ba 003e 52b8 debd 1cca 8a3b 8252 673c
000001a0: 525a 6abd 1d6a 90bd fb88 01be c007 5e3d
000001b0: ac81 c7bc 2f10 ac3d 0cd1 c2bd 3096 783d
000001c0: 8e3f e0bd 472e cb3d d0d8 cbbd 16b6 113d
000001d0: e0a6 34bc 8e4a 59bd 4bbd af3d efbb b5bd
000001e0: 3989 0d3e 1b57 19bd 9868 22bd 2db6 083d
000001f0: 4460 c2bd 9974 af3d 01cf bcbc 6294 e7bc
00000200: 3017 333a d9a0 bb3c f6df cb3a 9bb6 35bd
00000210: eef3 98bd fdb0 503d 8fca 8cbd da89 023e
00000220: aa5f 823d 287b c23c 6c23 e23d 7efd e2bc
00000230: 4dff 31bd fb21 f4bd 4141 f1bd 5dbb 863c
00000240: 1427 ce3c aa1e e53d 8a35 bc3d 0d1b e3bd
00000250: 07ec 00bb 01aa edbd 39e6 313e 9324 27bc
00000260: 83d0 7a3b 6919 be3c cae6 af3b 15bb af3d
00000270: 92f1 e43d 2b4b 9dbd 06ab aa3d 0c67 b4bd
00000280: 8844 20bd be14 d33d c9c4 edbd acfb 4abc
00000290: 67fa 2d3e fa48 aebd 5db4 a4bd f894 d63d
000002a0: 68bd 98bc a3d0 bcbd 3e9d 8bbd 2926 0e3e
000002b0: 1d77 d63d 511d 193d 4963 69bd 6490 bb3d
000002c0: 0beb 8a3d 7684 bc3d e143 f2bd 5cdb f73d
000002d0: 9ade dc3d fae3 463c c38c 393d 0e73 1c3b
000002e0: ff50 263d 3508 acbd 3775 293d dd2c edbd
000002f0: 705c 2dbc 7b49 823c a0dd 4abb c952 d0bd
00000300: dd5b c9bd 4ca5 dc3d 4750 b2bc 5cb7 0abd
00000310: 7426 8f3c 542a ce3b ab26 5cbd ec3a 0a3d

lstm.bias_hh_l0 f4 [200]
0.03182665 0.14839415 0.046528596 0.16263798 0.10957256 -0.122753546 0.023735287 0.10377681
0.084097885 0.019212937 -0.023875982 0.0752473 -0.11037618 0.20323294 0.12502402 0.12132638
0.014219378 -0.08001495 -0.08629694 0.14799045 -0.11507109 0.0011517336 -0.1545805 -0.079112455
-0.09179316 0.18389158 -0.015562213 0.09261075 -0.03722468 -0.03291125 0.14723524 -0.004254774
-0.1420426 -0.008594029 -0.14520659 -0.07455128 0.06465555 0.120460205 -0.11481191 -0.114270434
-0.09166064 -0.08635965 -0.0216562 0.017695379 -0.016614778 0.039912134 -0.02462159 -0.111237444
0.15735346 0.0047627063 0.094879895 0.004940973 0.11530778 0.04881674 0.05844745 -0.15318957
-0.10026687 -0.039556608 0.05851206 -0.054242894 0.0021544888 0.032392956 -0.015661225 -0.10343403
-0.0742494 -0.10755715 0.05584441 0.08452501 -0.05334996 -0.045969993 0.10559483 -0.056295086
-0.1455358 -0.09395792 -0.059743114 0.10482668 -0.06953017 -0.053106025 0.018099317 -0.10750105
-0.14671724 0.08945526 -0.015611748 -0.046132166 0.10763749 -0.06789862 0.017405402 -0.06549558
-0.007195096 0.038417276 0.033759203 -0.12073466 0.08911162 -0.01538549 -0.012686783 0.093455225
0.0628367 -0.110158354 -0.08644051 0.113845274 -0.089910574 0.11320447 0.07252255 -0.001188812
0.06406877 0.08407454 0.14121728 -0.053145673 0.14572172 0.0058311573 0.043473188 0.011186174
-0.00427685 0.059113923 0.07690907 0.04544768 0.030179484 -0.07892357 0.083073296 -0.039728474
0.015214237 -0.011470905 -0.036115214 0.045714527 -0.010022235 0.12599027 0.112366 -0.02809256
-0.013643426 0.019615471 -0.015877493 0.043928336 0.11532553 -0.089396395 0.08426641 0.060928307
-0.06402044 0.07353235 -0.07828315 -0.02266596 -0.06698223 0.05417263 0.0142913945 -0.03194406
-0.09409793 -0.045824155 0.092923395 0.09943453 0.03867596 0.08683692 0.10370104 -0.03270171
-0.11034955 -0.047535963 -0.018890932 -0.0078256475 -0.022907803 -0.03805592 0.06871975 0.025257815
-0.063597426 -0.11870691 -0.061647404 -0.072558224 -0.09113831 0.07916497 0.009713759 0.084231906
0.11149269 0.1590353 0.07306453 0.028901622 -0.014551206 0.01976409 -0.1349182 0.11065206
0.11640257 -0.055160448 0.121699326 0.0055894884 0.08558242 -0.04679469 0.07209168 0.03542885
-0.056375958 -0.13513745 0.017102007 0.03709056 -0.11070869 -0.04310269 -0.069799945 0.082444154
-0.033001255 0.07520949 -0.061021164 0.121528685 -0.03857968 -0.08399094 0.082353085 0.018875847
00000000: a95c 023d a3f4 173e c594 3e3d 928a 263e
00000010: 9467 e03d 3666 fbbd 8170 c23c f088 d43d
00000020: 833b ac3d 7364 9d3c 9097 c3bc 421b 9a3d
00000030: e80c e2bd 4c1c 503e 4c06 003e f779 f83d
00000040: 65f8 683c e1de a3bd 73bc b0bd cf8a 173e
00000050: 64aa ebbd c4f5 963a 5a4a 1ebe b605 a2bd
00000060: 0dfe bbbd 134e 3c3e a7f8 7ebc b4aa bd3d
00000070: e878 18bd f2cd 06bd d6c4 163e a26b 8bbb
00000080: 9e73 11be f8cd 0cbc 09b1 14be 57ae 98bd
00000090: 216a 843d d7b3 f63d 8222 ebbd 9e06 eabd
000000a0: 93b8 bbbd 54dd b0bd 5868 b1bc e6f5 903c
000000b0: b71b 88bc e87a 233d 37b3 c9bc 75d0 e3bd
000000c0: 4421 213e 7a10 9c3b 6450 c23d e3e7 a13b
000000d0: 7c26 ec3d 10f4 473d 9866 6f3d badd 1cbe
000000e0: b758 cdbd 1c06 22bd 58aa 6f3d cc2d 5ebd
000000f0: 5332 0d3b 7aae 043d f84b 80bc 39d5 d3bd
00000100: 1210 98bd ec46 dcbd 1cbd 643d 731b ad3d
00000110: 7d85 5abd 084b 3cbd 1a42 d83d ad95 66bd
00000120: 5607 15be 036d c0bd 32b5 74bd 5faf d63d
00000130: d565 8ebd b485 59bd 0545 943c 8329 dcbd
00000140: 0b3d 16be 5234 b73d 6bc8 7fbc 15f5 3cbd
00000150: 0b71 dc3d 6f0e 8bbd c695 8e3c 8c22 86bd
00000160: d7c4 ebbb 6f5b 1d3d 1747 0a3d bc43 f7bd
00000170: 2780 b63d 6c13 7cbc 3adc 4fbc 7465 bf3d
00000180: 87b0 803d b49a e1bd b907 b1bd b627 e93d
00000190: 0923 b8bd bfd7 e73d b486 943d e9d1 9bba
000001a0: 7d36 833d 462f ac3d 439b 103e 47af 59bd
000001b0: 1338 153e 4b13 bf3b f110 323d 3746 373c
000001c0: d124 8cbb 7121 723d 8182 9d3d 5927 3a3d
000001d0: f73a f73c aea2 a1bd 5522 aa3d 53ba 22bd
000001e0: 2345 793c 76f0 3bbc 8ced 13bd 283f 3b3d
000001f0: 4d34 24bc 9803 013e 2520 e63d 5e22 e6bc
00000200: ad88 5fbc a0b0 a03c 8411 82bc 33ee 333d
00000210: cb2f ec3d 7515 b7bd de93 ac3d f68f 793d
00000220: 261d 83bd 2198 963d eb52 a0bd f7ad b9bc
00000230: fb2d 89bd 1fe4 5d3d 7426 6a3c c6d7 02bd
00000240: 6ab6 c0bd 1cb2 3bbd 9f4e be3d 55a4 cb3d
00000250: af6a 1e3d 8ed7 b13d 3661 d43d 3af2 05bd
00000260: f2fe e1bd 12b5 42bd 28c1 9abc 2537 00bc
00000270: 25a9 bbbc 86e0 1bbd f1bc 8c3d 7ae9 ce3c
00000280: 5e3f 82bd 9c1c f3bd fd81 7cbd 6899 94bd
00000290: b9a6 babd 3e21 a23d 7526 1f3c c781 ac3d
000002a0: 4856 e43d 26da 223e dba2 953d 18c3 ec3c
000002b0: 2e68 6ebc 4de8 a13c ff27 0abe 8c9d e23d
000002c0: 7864 ee3d ecef 61bd 7f3d f93d 0728 b73b
000002d0: d645 af3d caab 3fbd cda4 933d d81d 113d
000002e0: 7aea 66bd 7961 0abe 8219 8c3c 45ec 173d
000002f0: 3dbb e2bd 728c 30bd 46f3 8ebd 7bd8 a83d
00000300: 532c 07bd 6f07 9a3d 54f1 79bd 08e4 f83d
00000310: ba05 1ebd 7103 acbd bca8 a83d 85a1 9a3c

fc.weight f4 [1, 50]
-0.19795905 -0.075280495 -0.065119326 -0.11734512 0.17671618 0.059014574 0.10754201 0.051099416
0.12275532 0.054316476 0.0073084654 0.14615779 -0.07585408 -0.07735139 0.07476501 -0.06116681
0.0050129993 -0.06309674 0.1461062 -0.16254744 0.12619038 0.101747245 0.05316438 0.15107772
-0.06998808 -0.14072265 0.08467963 0.1092661 -0.016805725 0.09282385 0.09921054 0.09312571
0.030702204 -0.13988896 -0.088061094 0.07620292 -0.2040656 -0.089491196 0.040803887 0.049317926
0.011669055 0.0843002 0.043904968 0.1345445 -0.12070125 -0.018161435 0.1628759 0.081312366
0.12313983 -0.013916995
00000000: c7b5 4abe a92c 9abd 485d 85bd a352 f0bd
00000010: 16f5 343e 44b9 713d fc3e dc3d 9f4d 513d
00000020: 2467 fb3d f47a 5e3d da7b ef3b 63aa 153e
00000030: 6259 9bbd 686a 9ebd 661e 993d 0d8a 7abd
00000040: 1644 a43b dd38 81bd dd9c 153e d672 26be
00000050: 0d38 013e dc60 d03d e5c2 593d 1eb4 1a3e
00000060: e955 8fbd 9919 10be 846c ad3d e8c6 df3d
00000070: 29ac 89bc 6e1a be3d e52e cb3d b1b8 be3d
00000080: 3083 fb3c 0d3f 0fbe 6059 b4bd 4710 9c3d
00000090: 93f6 50be 2947 b7bd fa21 273d 9801 4a3d
000000a0: 902f 3f3c 95a5 ac3d b2d5 333d 09c6 093e
000000b0: 3832 f7bd 4ac7 94bc f1c8 263e 1987 a63d
000000c0: bc30 fc3d 1c04 64bc
